{"modelTopology": {"keras_version": "2.1.6-tf", "backend": "tensorflow", "model_config": {"class_name": "Model", "config": {"name": "model_2", "layers": [{"name": "input_3", "class_name": "InputLayer", "config": {"batch_input_shape": [null, 224, 224, 3], "dtype": "float32", "sparse": false, "name": "input_3"}, "inbound_nodes": []}, {"name": "conv2d_72", "class_name": "Conv2D", "config": {"name": "conv2d_72", "trainable": true, "dtype": "float32", "filters": 32, "kernel_size": [3, 3], "strides": [2, 2], "padding": "same", "data_format": "channels_last", "dilation_rate": [1, 1], "activation": "linear", "use_bias": false, "kernel_initializer": {"class_name": "GlorotUniform", "config": {"seed": null, "dtype": "float32"}}, "bias_initializer": {"class_name": "Zeros", "config": {"dtype": "float32"}}, "kernel_regularizer": null, "bias_regularizer": null, "activity_regularizer": null, "kernel_constraint": null, "bias_constraint": null}, "inbound_nodes": [[["input_3", 0, 0, {}]]]}, {"name": "batch_normalization_106", "class_name": "BatchNormalization", "config": {"name": "batch_normalization_106", "trainable": true, "dtype": "float32", "axis": [3], "momentum": 0.99, "epsilon": 0.001, "center": true, "scale": true, "beta_initializer": {"class_name": "Zeros", "config": {"dtype": "float32"}}, "gamma_initializer": {"class_name": "Ones", "config": {"dtype": "float32"}}, "moving_mean_initializer": {"class_name": "Zeros", "config": {"dtype": "float32"}}, "moving_variance_initializer": {"class_name": "Ones", "config": {"dtype": "float32"}}, "beta_regularizer": null, "gamma_regularizer": null, "beta_constraint": null, "gamma_constraint": null}, "inbound_nodes": [[["conv2d_72", 0, 0, {}]]]}, {"name": "re_lu_72", "class_name": "ReLU", "config": {"name": "re_lu_72", "trainable": true, "dtype": "float32", "max_value": null, "negative_slope": {"type": "ndarray", "value": 0.0}, "threshold": {"type": "ndarray", "value": 0.0}}, "inbound_nodes": [[["batch_normalization_106", 0, 0, {}]]]}, {"name": "conv2d_73", "class_name": "Conv2D", "config": {"name": "conv2d_73", "trainable": true, "dtype": "float32", "filters": 32, "kernel_size": [1, 1], "strides": [1, 1], "padding": "same", "data_format": "channels_last", "dilation_rate": [1, 1], "activation": "linear", "use_bias": false, "kernel_initializer": {"class_name": "GlorotUniform", "config": {"seed": null, "dtype": "float32"}}, "bias_initializer": {"class_name": "Zeros", "config": {"dtype": "float32"}}, "kernel_regularizer": null, "bias_regularizer": null, "activity_regularizer": null, "kernel_constraint": null, "bias_constraint": null}, "inbound_nodes": [[["re_lu_72", 0, 0, {}]]]}, {"name": "batch_normalization_107", "class_name": "BatchNormalization", "config": {"name": "batch_normalization_107", "trainable": true, "dtype": "float32", "axis": [3], "momentum": 0.99, "epsilon": 0.001, "center": true, "scale": true, "beta_initializer": {"class_name": "Zeros", "config": {"dtype": "float32"}}, "gamma_initializer": {"class_name": "Ones", "config": {"dtype": "float32"}}, "moving_mean_initializer": {"class_name": "Zeros", "config": {"dtype": "float32"}}, "moving_variance_initializer": {"class_name": "Ones", "config": {"dtype": "float32"}}, "beta_regularizer": null, "gamma_regularizer": null, "beta_constraint": null, "gamma_constraint": null}, "inbound_nodes": [[["conv2d_73", 0, 0, {}]]]}, {"name": "re_lu_73", "class_name": "ReLU", "config": {"name": "re_lu_73", "trainable": true, "dtype": "float32", "max_value": null, "negative_slope": {"type": "ndarray", "value": 0.0}, "threshold": {"type": "ndarray", "value": 0.0}}, "inbound_nodes": [[["batch_normalization_107", 0, 0, {}]]]}, {"name": "depthwise_conv2d_34", "class_name": "DepthwiseConv2D", "config": {"name": "depthwise_conv2d_34", "trainable": true, "dtype": "float32", "kernel_size": [3, 3], "strides": [1, 1], "padding": "same", "data_format": "channels_last", "dilation_rate": [1, 1], "activation": "linear", "use_bias": false, "bias_initializer": {"class_name": "Zeros", "config": {"dtype": "float32"}}, "bias_regularizer": null, "activity_regularizer": null, "bias_constraint": null, "depth_multiplier": 1, "depthwise_initializer": {"class_name": "GlorotUniform", "config": {"seed": null, "dtype": "float32"}}, "depthwise_regularizer": null, "depthwise_constraint": null}, "inbound_nodes": [[["re_lu_73", 0, 0, {}]]]}, {"name": "batch_normalization_108", "class_name": "BatchNormalization", "config": {"name": "batch_normalization_108", "trainable": true, "dtype": "float32", "axis": [3], "momentum": 0.99, "epsilon": 0.001, "center": true, "scale": true, "beta_initializer": {"class_name": "Zeros", "config": {"dtype": "float32"}}, "gamma_initializer": {"class_name": "Ones", "config": {"dtype": "float32"}}, "moving_mean_initializer": {"class_name": "Zeros", "config": {"dtype": "float32"}}, "moving_variance_initializer": {"class_name": "Ones", "config": {"dtype": "float32"}}, "beta_regularizer": null, "gamma_regularizer": null, "beta_constraint": null, "gamma_constraint": null}, "inbound_nodes": [[["depthwise_conv2d_34", 0, 0, {}]]]}, {"name": "re_lu_74", "class_name": "ReLU", "config": {"name": "re_lu_74", "trainable": true, "dtype": "float32", "max_value": null, "negative_slope": {"type": "ndarray", "value": 0.0}, "threshold": {"type": "ndarray", "value": 0.0}}, "inbound_nodes": [[["batch_normalization_108", 0, 0, {}]]]}, {"name": "conv2d_74", "class_name": "Conv2D", "config": {"name": "conv2d_74", "trainable": true, "dtype": "float32", "filters": 16, "kernel_size": [1, 1], "strides": [1, 1], "padding": "same", "data_format": "channels_last", "dilation_rate": [1, 1], "activation": "linear", "use_bias": false, "kernel_initializer": {"class_name": "GlorotUniform", "config": {"seed": null, "dtype": "float32"}}, "bias_initializer": {"class_name": "Zeros", "config": {"dtype": "float32"}}, "kernel_regularizer": null, "bias_regularizer": null, "activity_regularizer": null, "kernel_constraint": null, "bias_constraint": null}, "inbound_nodes": [[["re_lu_74", 0, 0, {}]]]}, {"name": "batch_normalization_109", "class_name": "BatchNormalization", "config": {"name": "batch_normalization_109", "trainable": true, "dtype": "float32", "axis": [3], "momentum": 0.99, "epsilon": 0.001, "center": true, "scale": true, "beta_initializer": {"class_name": "Zeros", "config": {"dtype": "float32"}}, "gamma_initializer": {"class_name": "Ones", "config": {"dtype": "float32"}}, "moving_mean_initializer": {"class_name": "Zeros", "config": {"dtype": "float32"}}, "moving_variance_initializer": {"class_name": "Ones", "config": {"dtype": "float32"}}, "beta_regularizer": null, "gamma_regularizer": null, "beta_constraint": null, "gamma_constraint": null}, "inbound_nodes": [[["conv2d_74", 0, 0, {}]]]}, {"name": "conv2d_75", "class_name": "Conv2D", "config": {"name": "conv2d_75", "trainable": true, "dtype": "float32", "filters": 96, "kernel_size": [1, 1], "strides": [1, 1], "padding": "same", "data_format": "channels_last", "dilation_rate": [1, 1], "activation": "linear", "use_bias": false, "kernel_initializer": {"class_name": "GlorotUniform", "config": {"seed": null, "dtype": "float32"}}, "bias_initializer": {"class_name": "Zeros", "config": {"dtype": "float32"}}, "kernel_regularizer": null, "bias_regularizer": null, "activity_regularizer": null, "kernel_constraint": null, "bias_constraint": null}, "inbound_nodes": [[["batch_normalization_109", 0, 0, {}]]]}, {"name": "batch_normalization_110", "class_name": "BatchNormalization", "config": {"name": "batch_normalization_110", "trainable": true, "dtype": "float32", "axis": [3], "momentum": 0.99, "epsilon": 0.001, "center": true, "scale": true, "beta_initializer": {"class_name": "Zeros", "config": {"dtype": "float32"}}, "gamma_initializer": {"class_name": "Ones", "config": {"dtype": "float32"}}, "moving_mean_initializer": {"class_name": "Zeros", "config": {"dtype": "float32"}}, "moving_variance_initializer": {"class_name": "Ones", "config": {"dtype": "float32"}}, "beta_regularizer": null, "gamma_regularizer": null, "beta_constraint": null, "gamma_constraint": null}, "inbound_nodes": [[["conv2d_75", 0, 0, {}]]]}, {"name": "re_lu_75", "class_name": "ReLU", "config": {"name": "re_lu_75", "trainable": true, "dtype": "float32", "max_value": null, "negative_slope": {"type": "ndarray", "value": 0.0}, "threshold": {"type": "ndarray", "value": 0.0}}, "inbound_nodes": [[["batch_normalization_110", 0, 0, {}]]]}, {"name": "depthwise_conv2d_35", "class_name": "DepthwiseConv2D", "config": {"name": "depthwise_conv2d_35", "trainable": true, "dtype": "float32", "kernel_size": [3, 3], "strides": [2, 2], "padding": "same", "data_format": "channels_last", "dilation_rate": [1, 1], "activation": "linear", "use_bias": false, "bias_initializer": {"class_name": "Zeros", "config": {"dtype": "float32"}}, "bias_regularizer": null, "activity_regularizer": null, "bias_constraint": null, "depth_multiplier": 1, "depthwise_initializer": {"class_name": "GlorotUniform", "config": {"seed": null, "dtype": "float32"}}, "depthwise_regularizer": null, "depthwise_constraint": null}, "inbound_nodes": [[["re_lu_75", 0, 0, {}]]]}, {"name": "batch_normalization_111", "class_name": "BatchNormalization", "config": {"name": "batch_normalization_111", "trainable": true, "dtype": "float32", "axis": [3], "momentum": 0.99, "epsilon": 0.001, "center": true, "scale": true, "beta_initializer": {"class_name": "Zeros", "config": {"dtype": "float32"}}, "gamma_initializer": {"class_name": "Ones", "config": {"dtype": "float32"}}, "moving_mean_initializer": {"class_name": "Zeros", "config": {"dtype": "float32"}}, "moving_variance_initializer": {"class_name": "Ones", "config": {"dtype": "float32"}}, "beta_regularizer": null, "gamma_regularizer": null, "beta_constraint": null, "gamma_constraint": null}, "inbound_nodes": [[["depthwise_conv2d_35", 0, 0, {}]]]}, {"name": "re_lu_76", "class_name": "ReLU", "config": {"name": "re_lu_76", "trainable": true, "dtype": "float32", "max_value": null, "negative_slope": {"type": "ndarray", "value": 0.0}, "threshold": {"type": "ndarray", "value": 0.0}}, "inbound_nodes": [[["batch_normalization_111", 0, 0, {}]]]}, {"name": "conv2d_76", "class_name": "Conv2D", "config": {"name": "conv2d_76", "trainable": true, "dtype": "float32", "filters": 24, "kernel_size": [1, 1], "strides": [1, 1], "padding": "same", "data_format": "channels_last", "dilation_rate": [1, 1], "activation": "linear", "use_bias": false, "kernel_initializer": {"class_name": "GlorotUniform", "config": {"seed": null, "dtype": "float32"}}, "bias_initializer": {"class_name": "Zeros", "config": {"dtype": "float32"}}, "kernel_regularizer": null, "bias_regularizer": null, "activity_regularizer": null, "kernel_constraint": null, "bias_constraint": null}, "inbound_nodes": [[["re_lu_76", 0, 0, {}]]]}, {"name": "batch_normalization_112", "class_name": "BatchNormalization", "config": {"name": "batch_normalization_112", "trainable": true, "dtype": "float32", "axis": [3], "momentum": 0.99, "epsilon": 0.001, "center": true, "scale": true, "beta_initializer": {"class_name": "Zeros", "config": {"dtype": "float32"}}, "gamma_initializer": {"class_name": "Ones", "config": {"dtype": "float32"}}, "moving_mean_initializer": {"class_name": "Zeros", "config": {"dtype": "float32"}}, "moving_variance_initializer": {"class_name": "Ones", "config": {"dtype": "float32"}}, "beta_regularizer": null, "gamma_regularizer": null, "beta_constraint": null, "gamma_constraint": null}, "inbound_nodes": [[["conv2d_76", 0, 0, {}]]]}, {"name": "conv2d_77", "class_name": "Conv2D", "config": {"name": "conv2d_77", "trainable": true, "dtype": "float32", "filters": 144, "kernel_size": [1, 1], "strides": [1, 1], "padding": "same", "data_format": "channels_last", "dilation_rate": [1, 1], "activation": "linear", "use_bias": false, "kernel_initializer": {"class_name": "GlorotUniform", "config": {"seed": null, "dtype": "float32"}}, "bias_initializer": {"class_name": "Zeros", "config": {"dtype": "float32"}}, "kernel_regularizer": null, "bias_regularizer": null, "activity_regularizer": null, "kernel_constraint": null, "bias_constraint": null}, "inbound_nodes": [[["batch_normalization_112", 0, 0, {}]]]}, {"name": "batch_normalization_113", "class_name": "BatchNormalization", "config": {"name": "batch_normalization_113", "trainable": true, "dtype": "float32", "axis": [3], "momentum": 0.99, "epsilon": 0.001, "center": true, "scale": true, "beta_initializer": {"class_name": "Zeros", "config": {"dtype": "float32"}}, "gamma_initializer": {"class_name": "Ones", "config": {"dtype": "float32"}}, "moving_mean_initializer": {"class_name": "Zeros", "config": {"dtype": "float32"}}, "moving_variance_initializer": {"class_name": "Ones", "config": {"dtype": "float32"}}, "beta_regularizer": null, "gamma_regularizer": null, "beta_constraint": null, "gamma_constraint": null}, "inbound_nodes": [[["conv2d_77", 0, 0, {}]]]}, {"name": "re_lu_77", "class_name": "ReLU", "config": {"name": "re_lu_77", "trainable": true, "dtype": "float32", "max_value": null, "negative_slope": {"type": "ndarray", "value": 0.0}, "threshold": {"type": "ndarray", "value": 0.0}}, "inbound_nodes": [[["batch_normalization_113", 0, 0, {}]]]}, {"name": "depthwise_conv2d_36", "class_name": "DepthwiseConv2D", "config": {"name": "depthwise_conv2d_36", "trainable": true, "dtype": "float32", "kernel_size": [3, 3], "strides": [1, 1], "padding": "same", "data_format": "channels_last", "dilation_rate": [1, 1], "activation": "linear", "use_bias": false, "bias_initializer": {"class_name": "Zeros", "config": {"dtype": "float32"}}, "bias_regularizer": null, "activity_regularizer": null, "bias_constraint": null, "depth_multiplier": 1, "depthwise_initializer": {"class_name": "GlorotUniform", "config": {"seed": null, "dtype": "float32"}}, "depthwise_regularizer": null, "depthwise_constraint": null}, "inbound_nodes": [[["re_lu_77", 0, 0, {}]]]}, {"name": "batch_normalization_114", "class_name": "BatchNormalization", "config": {"name": "batch_normalization_114", "trainable": true, "dtype": "float32", "axis": [3], "momentum": 0.99, "epsilon": 0.001, "center": true, "scale": true, "beta_initializer": {"class_name": "Zeros", "config": {"dtype": "float32"}}, "gamma_initializer": {"class_name": "Ones", "config": {"dtype": "float32"}}, "moving_mean_initializer": {"class_name": "Zeros", "config": {"dtype": "float32"}}, "moving_variance_initializer": {"class_name": "Ones", "config": {"dtype": "float32"}}, "beta_regularizer": null, "gamma_regularizer": null, "beta_constraint": null, "gamma_constraint": null}, "inbound_nodes": [[["depthwise_conv2d_36", 0, 0, {}]]]}, {"name": "re_lu_78", "class_name": "ReLU", "config": {"name": "re_lu_78", "trainable": true, "dtype": "float32", "max_value": null, "negative_slope": {"type": "ndarray", "value": 0.0}, "threshold": {"type": "ndarray", "value": 0.0}}, "inbound_nodes": [[["batch_normalization_114", 0, 0, {}]]]}, {"name": "conv2d_78", "class_name": "Conv2D", "config": {"name": "conv2d_78", "trainable": true, "dtype": "float32", "filters": 24, "kernel_size": [1, 1], "strides": [1, 1], "padding": "same", "data_format": "channels_last", "dilation_rate": [1, 1], "activation": "linear", "use_bias": false, "kernel_initializer": {"class_name": "GlorotUniform", "config": {"seed": null, "dtype": "float32"}}, "bias_initializer": {"class_name": "Zeros", "config": {"dtype": "float32"}}, "kernel_regularizer": null, "bias_regularizer": null, "activity_regularizer": null, "kernel_constraint": null, "bias_constraint": null}, "inbound_nodes": [[["re_lu_78", 0, 0, {}]]]}, {"name": "batch_normalization_115", "class_name": "BatchNormalization", "config": {"name": "batch_normalization_115", "trainable": true, "dtype": "float32", "axis": [3], "momentum": 0.99, "epsilon": 0.001, "center": true, "scale": true, "beta_initializer": {"class_name": "Zeros", "config": {"dtype": "float32"}}, "gamma_initializer": {"class_name": "Ones", "config": {"dtype": "float32"}}, "moving_mean_initializer": {"class_name": "Zeros", "config": {"dtype": "float32"}}, "moving_variance_initializer": {"class_name": "Ones", "config": {"dtype": "float32"}}, "beta_regularizer": null, "gamma_regularizer": null, "beta_constraint": null, "gamma_constraint": null}, "inbound_nodes": [[["conv2d_78", 0, 0, {}]]]}, {"name": "add_20", "class_name": "Add", "config": {"name": "add_20", "trainable": true, "dtype": "float32"}, "inbound_nodes": [[["batch_normalization_115", 0, 0, {}], ["batch_normalization_112", 0, 0, {}]]]}, {"name": "conv2d_79", "class_name": "Conv2D", "config": {"name": "conv2d_79", "trainable": true, "dtype": "float32", "filters": 144, "kernel_size": [1, 1], "strides": [1, 1], "padding": "same", "data_format": "channels_last", "dilation_rate": [1, 1], "activation": "linear", "use_bias": false, "kernel_initializer": {"class_name": "GlorotUniform", "config": {"seed": null, "dtype": "float32"}}, "bias_initializer": {"class_name": "Zeros", "config": {"dtype": "float32"}}, "kernel_regularizer": null, "bias_regularizer": null, "activity_regularizer": null, "kernel_constraint": null, "bias_constraint": null}, "inbound_nodes": [[["add_20", 0, 0, {}]]]}, {"name": "batch_normalization_116", "class_name": "BatchNormalization", "config": {"name": "batch_normalization_116", "trainable": true, "dtype": "float32", "axis": [3], "momentum": 0.99, "epsilon": 0.001, "center": true, "scale": true, "beta_initializer": {"class_name": "Zeros", "config": {"dtype": "float32"}}, "gamma_initializer": {"class_name": "Ones", "config": {"dtype": "float32"}}, "moving_mean_initializer": {"class_name": "Zeros", "config": {"dtype": "float32"}}, "moving_variance_initializer": {"class_name": "Ones", "config": {"dtype": "float32"}}, "beta_regularizer": null, "gamma_regularizer": null, "beta_constraint": null, "gamma_constraint": null}, "inbound_nodes": [[["conv2d_79", 0, 0, {}]]]}, {"name": "re_lu_79", "class_name": "ReLU", "config": {"name": "re_lu_79", "trainable": true, "dtype": "float32", "max_value": null, "negative_slope": {"type": "ndarray", "value": 0.0}, "threshold": {"type": "ndarray", "value": 0.0}}, "inbound_nodes": [[["batch_normalization_116", 0, 0, {}]]]}, {"name": "depthwise_conv2d_37", "class_name": "DepthwiseConv2D", "config": {"name": "depthwise_conv2d_37", "trainable": true, "dtype": "float32", "kernel_size": [3, 3], "strides": [2, 2], "padding": "same", "data_format": "channels_last", "dilation_rate": [1, 1], "activation": "linear", "use_bias": false, "bias_initializer": {"class_name": "Zeros", "config": {"dtype": "float32"}}, "bias_regularizer": null, "activity_regularizer": null, "bias_constraint": null, "depth_multiplier": 1, "depthwise_initializer": {"class_name": "GlorotUniform", "config": {"seed": null, "dtype": "float32"}}, "depthwise_regularizer": null, "depthwise_constraint": null}, "inbound_nodes": [[["re_lu_79", 0, 0, {}]]]}, {"name": "batch_normalization_117", "class_name": "BatchNormalization", "config": {"name": "batch_normalization_117", "trainable": true, "dtype": "float32", "axis": [3], "momentum": 0.99, "epsilon": 0.001, "center": true, "scale": true, "beta_initializer": {"class_name": "Zeros", "config": {"dtype": "float32"}}, "gamma_initializer": {"class_name": "Ones", "config": {"dtype": "float32"}}, "moving_mean_initializer": {"class_name": "Zeros", "config": {"dtype": "float32"}}, "moving_variance_initializer": {"class_name": "Ones", "config": {"dtype": "float32"}}, "beta_regularizer": null, "gamma_regularizer": null, "beta_constraint": null, "gamma_constraint": null}, "inbound_nodes": [[["depthwise_conv2d_37", 0, 0, {}]]]}, {"name": "re_lu_80", "class_name": "ReLU", "config": {"name": "re_lu_80", "trainable": true, "dtype": "float32", "max_value": null, "negative_slope": {"type": "ndarray", "value": 0.0}, "threshold": {"type": "ndarray", "value": 0.0}}, "inbound_nodes": [[["batch_normalization_117", 0, 0, {}]]]}, {"name": "conv2d_80", "class_name": "Conv2D", "config": {"name": "conv2d_80", "trainable": true, "dtype": "float32", "filters": 32, "kernel_size": [1, 1], "strides": [1, 1], "padding": "same", "data_format": "channels_last", "dilation_rate": [1, 1], "activation": "linear", "use_bias": false, "kernel_initializer": {"class_name": "GlorotUniform", "config": {"seed": null, "dtype": "float32"}}, "bias_initializer": {"class_name": "Zeros", "config": {"dtype": "float32"}}, "kernel_regularizer": null, "bias_regularizer": null, "activity_regularizer": null, "kernel_constraint": null, "bias_constraint": null}, "inbound_nodes": [[["re_lu_80", 0, 0, {}]]]}, {"name": "batch_normalization_118", "class_name": "BatchNormalization", "config": {"name": "batch_normalization_118", "trainable": true, "dtype": "float32", "axis": [3], "momentum": 0.99, "epsilon": 0.001, "center": true, "scale": true, "beta_initializer": {"class_name": "Zeros", "config": {"dtype": "float32"}}, "gamma_initializer": {"class_name": "Ones", "config": {"dtype": "float32"}}, "moving_mean_initializer": {"class_name": "Zeros", "config": {"dtype": "float32"}}, "moving_variance_initializer": {"class_name": "Ones", "config": {"dtype": "float32"}}, "beta_regularizer": null, "gamma_regularizer": null, "beta_constraint": null, "gamma_constraint": null}, "inbound_nodes": [[["conv2d_80", 0, 0, {}]]]}, {"name": "conv2d_81", "class_name": "Conv2D", "config": {"name": "conv2d_81", "trainable": true, "dtype": "float32", "filters": 192, "kernel_size": [1, 1], "strides": [1, 1], "padding": "same", "data_format": "channels_last", "dilation_rate": [1, 1], "activation": "linear", "use_bias": false, "kernel_initializer": {"class_name": "GlorotUniform", "config": {"seed": null, "dtype": "float32"}}, "bias_initializer": {"class_name": "Zeros", "config": {"dtype": "float32"}}, "kernel_regularizer": null, "bias_regularizer": null, "activity_regularizer": null, "kernel_constraint": null, "bias_constraint": null}, "inbound_nodes": [[["batch_normalization_118", 0, 0, {}]]]}, {"name": "batch_normalization_119", "class_name": "BatchNormalization", "config": {"name": "batch_normalization_119", "trainable": true, "dtype": "float32", "axis": [3], "momentum": 0.99, "epsilon": 0.001, "center": true, "scale": true, "beta_initializer": {"class_name": "Zeros", "config": {"dtype": "float32"}}, "gamma_initializer": {"class_name": "Ones", "config": {"dtype": "float32"}}, "moving_mean_initializer": {"class_name": "Zeros", "config": {"dtype": "float32"}}, "moving_variance_initializer": {"class_name": "Ones", "config": {"dtype": "float32"}}, "beta_regularizer": null, "gamma_regularizer": null, "beta_constraint": null, "gamma_constraint": null}, "inbound_nodes": [[["conv2d_81", 0, 0, {}]]]}, {"name": "re_lu_81", "class_name": "ReLU", "config": {"name": "re_lu_81", "trainable": true, "dtype": "float32", "max_value": null, "negative_slope": {"type": "ndarray", "value": 0.0}, "threshold": {"type": "ndarray", "value": 0.0}}, "inbound_nodes": [[["batch_normalization_119", 0, 0, {}]]]}, {"name": "depthwise_conv2d_38", "class_name": "DepthwiseConv2D", "config": {"name": "depthwise_conv2d_38", "trainable": true, "dtype": "float32", "kernel_size": [3, 3], "strides": [1, 1], "padding": "same", "data_format": "channels_last", "dilation_rate": [1, 1], "activation": "linear", "use_bias": false, "bias_initializer": {"class_name": "Zeros", "config": {"dtype": "float32"}}, "bias_regularizer": null, "activity_regularizer": null, "bias_constraint": null, "depth_multiplier": 1, "depthwise_initializer": {"class_name": "GlorotUniform", "config": {"seed": null, "dtype": "float32"}}, "depthwise_regularizer": null, "depthwise_constraint": null}, "inbound_nodes": [[["re_lu_81", 0, 0, {}]]]}, {"name": "batch_normalization_120", "class_name": "BatchNormalization", "config": {"name": "batch_normalization_120", "trainable": true, "dtype": "float32", "axis": [3], "momentum": 0.99, "epsilon": 0.001, "center": true, "scale": true, "beta_initializer": {"class_name": "Zeros", "config": {"dtype": "float32"}}, "gamma_initializer": {"class_name": "Ones", "config": {"dtype": "float32"}}, "moving_mean_initializer": {"class_name": "Zeros", "config": {"dtype": "float32"}}, "moving_variance_initializer": {"class_name": "Ones", "config": {"dtype": "float32"}}, "beta_regularizer": null, "gamma_regularizer": null, "beta_constraint": null, "gamma_constraint": null}, "inbound_nodes": [[["depthwise_conv2d_38", 0, 0, {}]]]}, {"name": "re_lu_82", "class_name": "ReLU", "config": {"name": "re_lu_82", "trainable": true, "dtype": "float32", "max_value": null, "negative_slope": {"type": "ndarray", "value": 0.0}, "threshold": {"type": "ndarray", "value": 0.0}}, "inbound_nodes": [[["batch_normalization_120", 0, 0, {}]]]}, {"name": "conv2d_82", "class_name": "Conv2D", "config": {"name": "conv2d_82", "trainable": true, "dtype": "float32", "filters": 32, "kernel_size": [1, 1], "strides": [1, 1], "padding": "same", "data_format": "channels_last", "dilation_rate": [1, 1], "activation": "linear", "use_bias": false, "kernel_initializer": {"class_name": "GlorotUniform", "config": {"seed": null, "dtype": "float32"}}, "bias_initializer": {"class_name": "Zeros", "config": {"dtype": "float32"}}, "kernel_regularizer": null, "bias_regularizer": null, "activity_regularizer": null, "kernel_constraint": null, "bias_constraint": null}, "inbound_nodes": [[["re_lu_82", 0, 0, {}]]]}, {"name": "batch_normalization_121", "class_name": "BatchNormalization", "config": {"name": "batch_normalization_121", "trainable": true, "dtype": "float32", "axis": [3], "momentum": 0.99, "epsilon": 0.001, "center": true, "scale": true, "beta_initializer": {"class_name": "Zeros", "config": {"dtype": "float32"}}, "gamma_initializer": {"class_name": "Ones", "config": {"dtype": "float32"}}, "moving_mean_initializer": {"class_name": "Zeros", "config": {"dtype": "float32"}}, "moving_variance_initializer": {"class_name": "Ones", "config": {"dtype": "float32"}}, "beta_regularizer": null, "gamma_regularizer": null, "beta_constraint": null, "gamma_constraint": null}, "inbound_nodes": [[["conv2d_82", 0, 0, {}]]]}, {"name": "add_21", "class_name": "Add", "config": {"name": "add_21", "trainable": true, "dtype": "float32"}, "inbound_nodes": [[["batch_normalization_121", 0, 0, {}], ["batch_normalization_118", 0, 0, {}]]]}, {"name": "conv2d_83", "class_name": "Conv2D", "config": {"name": "conv2d_83", "trainable": true, "dtype": "float32", "filters": 192, "kernel_size": [1, 1], "strides": [1, 1], "padding": "same", "data_format": "channels_last", "dilation_rate": [1, 1], "activation": "linear", "use_bias": false, "kernel_initializer": {"class_name": "GlorotUniform", "config": {"seed": null, "dtype": "float32"}}, "bias_initializer": {"class_name": "Zeros", "config": {"dtype": "float32"}}, "kernel_regularizer": null, "bias_regularizer": null, "activity_regularizer": null, "kernel_constraint": null, "bias_constraint": null}, "inbound_nodes": [[["add_21", 0, 0, {}]]]}, {"name": "batch_normalization_122", "class_name": "BatchNormalization", "config": {"name": "batch_normalization_122", "trainable": true, "dtype": "float32", "axis": [3], "momentum": 0.99, "epsilon": 0.001, "center": true, "scale": true, "beta_initializer": {"class_name": "Zeros", "config": {"dtype": "float32"}}, "gamma_initializer": {"class_name": "Ones", "config": {"dtype": "float32"}}, "moving_mean_initializer": {"class_name": "Zeros", "config": {"dtype": "float32"}}, "moving_variance_initializer": {"class_name": "Ones", "config": {"dtype": "float32"}}, "beta_regularizer": null, "gamma_regularizer": null, "beta_constraint": null, "gamma_constraint": null}, "inbound_nodes": [[["conv2d_83", 0, 0, {}]]]}, {"name": "re_lu_83", "class_name": "ReLU", "config": {"name": "re_lu_83", "trainable": true, "dtype": "float32", "max_value": null, "negative_slope": {"type": "ndarray", "value": 0.0}, "threshold": {"type": "ndarray", "value": 0.0}}, "inbound_nodes": [[["batch_normalization_122", 0, 0, {}]]]}, {"name": "depthwise_conv2d_39", "class_name": "DepthwiseConv2D", "config": {"name": "depthwise_conv2d_39", "trainable": true, "dtype": "float32", "kernel_size": [3, 3], "strides": [1, 1], "padding": "same", "data_format": "channels_last", "dilation_rate": [1, 1], "activation": "linear", "use_bias": false, "bias_initializer": {"class_name": "Zeros", "config": {"dtype": "float32"}}, "bias_regularizer": null, "activity_regularizer": null, "bias_constraint": null, "depth_multiplier": 1, "depthwise_initializer": {"class_name": "GlorotUniform", "config": {"seed": null, "dtype": "float32"}}, "depthwise_regularizer": null, "depthwise_constraint": null}, "inbound_nodes": [[["re_lu_83", 0, 0, {}]]]}, {"name": "batch_normalization_123", "class_name": "BatchNormalization", "config": {"name": "batch_normalization_123", "trainable": true, "dtype": "float32", "axis": [3], "momentum": 0.99, "epsilon": 0.001, "center": true, "scale": true, "beta_initializer": {"class_name": "Zeros", "config": {"dtype": "float32"}}, "gamma_initializer": {"class_name": "Ones", "config": {"dtype": "float32"}}, "moving_mean_initializer": {"class_name": "Zeros", "config": {"dtype": "float32"}}, "moving_variance_initializer": {"class_name": "Ones", "config": {"dtype": "float32"}}, "beta_regularizer": null, "gamma_regularizer": null, "beta_constraint": null, "gamma_constraint": null}, "inbound_nodes": [[["depthwise_conv2d_39", 0, 0, {}]]]}, {"name": "re_lu_84", "class_name": "ReLU", "config": {"name": "re_lu_84", "trainable": true, "dtype": "float32", "max_value": null, "negative_slope": {"type": "ndarray", "value": 0.0}, "threshold": {"type": "ndarray", "value": 0.0}}, "inbound_nodes": [[["batch_normalization_123", 0, 0, {}]]]}, {"name": "conv2d_84", "class_name": "Conv2D", "config": {"name": "conv2d_84", "trainable": true, "dtype": "float32", "filters": 32, "kernel_size": [1, 1], "strides": [1, 1], "padding": "same", "data_format": "channels_last", "dilation_rate": [1, 1], "activation": "linear", "use_bias": false, "kernel_initializer": {"class_name": "GlorotUniform", "config": {"seed": null, "dtype": "float32"}}, "bias_initializer": {"class_name": "Zeros", "config": {"dtype": "float32"}}, "kernel_regularizer": null, "bias_regularizer": null, "activity_regularizer": null, "kernel_constraint": null, "bias_constraint": null}, "inbound_nodes": [[["re_lu_84", 0, 0, {}]]]}, {"name": "batch_normalization_124", "class_name": "BatchNormalization", "config": {"name": "batch_normalization_124", "trainable": true, "dtype": "float32", "axis": [3], "momentum": 0.99, "epsilon": 0.001, "center": true, "scale": true, "beta_initializer": {"class_name": "Zeros", "config": {"dtype": "float32"}}, "gamma_initializer": {"class_name": "Ones", "config": {"dtype": "float32"}}, "moving_mean_initializer": {"class_name": "Zeros", "config": {"dtype": "float32"}}, "moving_variance_initializer": {"class_name": "Ones", "config": {"dtype": "float32"}}, "beta_regularizer": null, "gamma_regularizer": null, "beta_constraint": null, "gamma_constraint": null}, "inbound_nodes": [[["conv2d_84", 0, 0, {}]]]}, {"name": "add_22", "class_name": "Add", "config": {"name": "add_22", "trainable": true, "dtype": "float32"}, "inbound_nodes": [[["batch_normalization_124", 0, 0, {}], ["add_21", 0, 0, {}]]]}, {"name": "conv2d_85", "class_name": "Conv2D", "config": {"name": "conv2d_85", "trainable": true, "dtype": "float32", "filters": 192, "kernel_size": [1, 1], "strides": [1, 1], "padding": "same", "data_format": "channels_last", "dilation_rate": [1, 1], "activation": "linear", "use_bias": false, "kernel_initializer": {"class_name": "GlorotUniform", "config": {"seed": null, "dtype": "float32"}}, "bias_initializer": {"class_name": "Zeros", "config": {"dtype": "float32"}}, "kernel_regularizer": null, "bias_regularizer": null, "activity_regularizer": null, "kernel_constraint": null, "bias_constraint": null}, "inbound_nodes": [[["add_22", 0, 0, {}]]]}, {"name": "batch_normalization_125", "class_name": "BatchNormalization", "config": {"name": "batch_normalization_125", "trainable": true, "dtype": "float32", "axis": [3], "momentum": 0.99, "epsilon": 0.001, "center": true, "scale": true, "beta_initializer": {"class_name": "Zeros", "config": {"dtype": "float32"}}, "gamma_initializer": {"class_name": "Ones", "config": {"dtype": "float32"}}, "moving_mean_initializer": {"class_name": "Zeros", "config": {"dtype": "float32"}}, "moving_variance_initializer": {"class_name": "Ones", "config": {"dtype": "float32"}}, "beta_regularizer": null, "gamma_regularizer": null, "beta_constraint": null, "gamma_constraint": null}, "inbound_nodes": [[["conv2d_85", 0, 0, {}]]]}, {"name": "re_lu_85", "class_name": "ReLU", "config": {"name": "re_lu_85", "trainable": true, "dtype": "float32", "max_value": null, "negative_slope": {"type": "ndarray", "value": 0.0}, "threshold": {"type": "ndarray", "value": 0.0}}, "inbound_nodes": [[["batch_normalization_125", 0, 0, {}]]]}, {"name": "depthwise_conv2d_40", "class_name": "DepthwiseConv2D", "config": {"name": "depthwise_conv2d_40", "trainable": true, "dtype": "float32", "kernel_size": [3, 3], "strides": [2, 2], "padding": "same", "data_format": "channels_last", "dilation_rate": [1, 1], "activation": "linear", "use_bias": false, "bias_initializer": {"class_name": "Zeros", "config": {"dtype": "float32"}}, "bias_regularizer": null, "activity_regularizer": null, "bias_constraint": null, "depth_multiplier": 1, "depthwise_initializer": {"class_name": "GlorotUniform", "config": {"seed": null, "dtype": "float32"}}, "depthwise_regularizer": null, "depthwise_constraint": null}, "inbound_nodes": [[["re_lu_85", 0, 0, {}]]]}, {"name": "batch_normalization_126", "class_name": "BatchNormalization", "config": {"name": "batch_normalization_126", "trainable": true, "dtype": "float32", "axis": [3], "momentum": 0.99, "epsilon": 0.001, "center": true, "scale": true, "beta_initializer": {"class_name": "Zeros", "config": {"dtype": "float32"}}, "gamma_initializer": {"class_name": "Ones", "config": {"dtype": "float32"}}, "moving_mean_initializer": {"class_name": "Zeros", "config": {"dtype": "float32"}}, "moving_variance_initializer": {"class_name": "Ones", "config": {"dtype": "float32"}}, "beta_regularizer": null, "gamma_regularizer": null, "beta_constraint": null, "gamma_constraint": null}, "inbound_nodes": [[["depthwise_conv2d_40", 0, 0, {}]]]}, {"name": "re_lu_86", "class_name": "ReLU", "config": {"name": "re_lu_86", "trainable": true, "dtype": "float32", "max_value": null, "negative_slope": {"type": "ndarray", "value": 0.0}, "threshold": {"type": "ndarray", "value": 0.0}}, "inbound_nodes": [[["batch_normalization_126", 0, 0, {}]]]}, {"name": "conv2d_86", "class_name": "Conv2D", "config": {"name": "conv2d_86", "trainable": true, "dtype": "float32", "filters": 64, "kernel_size": [1, 1], "strides": [1, 1], "padding": "same", "data_format": "channels_last", "dilation_rate": [1, 1], "activation": "linear", "use_bias": false, "kernel_initializer": {"class_name": "GlorotUniform", "config": {"seed": null, "dtype": "float32"}}, "bias_initializer": {"class_name": "Zeros", "config": {"dtype": "float32"}}, "kernel_regularizer": null, "bias_regularizer": null, "activity_regularizer": null, "kernel_constraint": null, "bias_constraint": null}, "inbound_nodes": [[["re_lu_86", 0, 0, {}]]]}, {"name": "batch_normalization_127", "class_name": "BatchNormalization", "config": {"name": "batch_normalization_127", "trainable": true, "dtype": "float32", "axis": [3], "momentum": 0.99, "epsilon": 0.001, "center": true, "scale": true, "beta_initializer": {"class_name": "Zeros", "config": {"dtype": "float32"}}, "gamma_initializer": {"class_name": "Ones", "config": {"dtype": "float32"}}, "moving_mean_initializer": {"class_name": "Zeros", "config": {"dtype": "float32"}}, "moving_variance_initializer": {"class_name": "Ones", "config": {"dtype": "float32"}}, "beta_regularizer": null, "gamma_regularizer": null, "beta_constraint": null, "gamma_constraint": null}, "inbound_nodes": [[["conv2d_86", 0, 0, {}]]]}, {"name": "conv2d_87", "class_name": "Conv2D", "config": {"name": "conv2d_87", "trainable": true, "dtype": "float32", "filters": 384, "kernel_size": [1, 1], "strides": [1, 1], "padding": "same", "data_format": "channels_last", "dilation_rate": [1, 1], "activation": "linear", "use_bias": false, "kernel_initializer": {"class_name": "GlorotUniform", "config": {"seed": null, "dtype": "float32"}}, "bias_initializer": {"class_name": "Zeros", "config": {"dtype": "float32"}}, "kernel_regularizer": null, "bias_regularizer": null, "activity_regularizer": null, "kernel_constraint": null, "bias_constraint": null}, "inbound_nodes": [[["batch_normalization_127", 0, 0, {}]]]}, {"name": "batch_normalization_128", "class_name": "BatchNormalization", "config": {"name": "batch_normalization_128", "trainable": true, "dtype": "float32", "axis": [3], "momentum": 0.99, "epsilon": 0.001, "center": true, "scale": true, "beta_initializer": {"class_name": "Zeros", "config": {"dtype": "float32"}}, "gamma_initializer": {"class_name": "Ones", "config": {"dtype": "float32"}}, "moving_mean_initializer": {"class_name": "Zeros", "config": {"dtype": "float32"}}, "moving_variance_initializer": {"class_name": "Ones", "config": {"dtype": "float32"}}, "beta_regularizer": null, "gamma_regularizer": null, "beta_constraint": null, "gamma_constraint": null}, "inbound_nodes": [[["conv2d_87", 0, 0, {}]]]}, {"name": "re_lu_87", "class_name": "ReLU", "config": {"name": "re_lu_87", "trainable": true, "dtype": "float32", "max_value": null, "negative_slope": {"type": "ndarray", "value": 0.0}, "threshold": {"type": "ndarray", "value": 0.0}}, "inbound_nodes": [[["batch_normalization_128", 0, 0, {}]]]}, {"name": "depthwise_conv2d_41", "class_name": "DepthwiseConv2D", "config": {"name": "depthwise_conv2d_41", "trainable": true, "dtype": "float32", "kernel_size": [3, 3], "strides": [1, 1], "padding": "same", "data_format": "channels_last", "dilation_rate": [1, 1], "activation": "linear", "use_bias": false, "bias_initializer": {"class_name": "Zeros", "config": {"dtype": "float32"}}, "bias_regularizer": null, "activity_regularizer": null, "bias_constraint": null, "depth_multiplier": 1, "depthwise_initializer": {"class_name": "GlorotUniform", "config": {"seed": null, "dtype": "float32"}}, "depthwise_regularizer": null, "depthwise_constraint": null}, "inbound_nodes": [[["re_lu_87", 0, 0, {}]]]}, {"name": "batch_normalization_129", "class_name": "BatchNormalization", "config": {"name": "batch_normalization_129", "trainable": true, "dtype": "float32", "axis": [3], "momentum": 0.99, "epsilon": 0.001, "center": true, "scale": true, "beta_initializer": {"class_name": "Zeros", "config": {"dtype": "float32"}}, "gamma_initializer": {"class_name": "Ones", "config": {"dtype": "float32"}}, "moving_mean_initializer": {"class_name": "Zeros", "config": {"dtype": "float32"}}, "moving_variance_initializer": {"class_name": "Ones", "config": {"dtype": "float32"}}, "beta_regularizer": null, "gamma_regularizer": null, "beta_constraint": null, "gamma_constraint": null}, "inbound_nodes": [[["depthwise_conv2d_41", 0, 0, {}]]]}, {"name": "re_lu_88", "class_name": "ReLU", "config": {"name": "re_lu_88", "trainable": true, "dtype": "float32", "max_value": null, "negative_slope": {"type": "ndarray", "value": 0.0}, "threshold": {"type": "ndarray", "value": 0.0}}, "inbound_nodes": [[["batch_normalization_129", 0, 0, {}]]]}, {"name": "conv2d_88", "class_name": "Conv2D", "config": {"name": "conv2d_88", "trainable": true, "dtype": "float32", "filters": 64, "kernel_size": [1, 1], "strides": [1, 1], "padding": "same", "data_format": "channels_last", "dilation_rate": [1, 1], "activation": "linear", "use_bias": false, "kernel_initializer": {"class_name": "GlorotUniform", "config": {"seed": null, "dtype": "float32"}}, "bias_initializer": {"class_name": "Zeros", "config": {"dtype": "float32"}}, "kernel_regularizer": null, "bias_regularizer": null, "activity_regularizer": null, "kernel_constraint": null, "bias_constraint": null}, "inbound_nodes": [[["re_lu_88", 0, 0, {}]]]}, {"name": "batch_normalization_130", "class_name": "BatchNormalization", "config": {"name": "batch_normalization_130", "trainable": true, "dtype": "float32", "axis": [3], "momentum": 0.99, "epsilon": 0.001, "center": true, "scale": true, "beta_initializer": {"class_name": "Zeros", "config": {"dtype": "float32"}}, "gamma_initializer": {"class_name": "Ones", "config": {"dtype": "float32"}}, "moving_mean_initializer": {"class_name": "Zeros", "config": {"dtype": "float32"}}, "moving_variance_initializer": {"class_name": "Ones", "config": {"dtype": "float32"}}, "beta_regularizer": null, "gamma_regularizer": null, "beta_constraint": null, "gamma_constraint": null}, "inbound_nodes": [[["conv2d_88", 0, 0, {}]]]}, {"name": "add_23", "class_name": "Add", "config": {"name": "add_23", "trainable": true, "dtype": "float32"}, "inbound_nodes": [[["batch_normalization_130", 0, 0, {}], ["batch_normalization_127", 0, 0, {}]]]}, {"name": "conv2d_89", "class_name": "Conv2D", "config": {"name": "conv2d_89", "trainable": true, "dtype": "float32", "filters": 384, "kernel_size": [1, 1], "strides": [1, 1], "padding": "same", "data_format": "channels_last", "dilation_rate": [1, 1], "activation": "linear", "use_bias": false, "kernel_initializer": {"class_name": "GlorotUniform", "config": {"seed": null, "dtype": "float32"}}, "bias_initializer": {"class_name": "Zeros", "config": {"dtype": "float32"}}, "kernel_regularizer": null, "bias_regularizer": null, "activity_regularizer": null, "kernel_constraint": null, "bias_constraint": null}, "inbound_nodes": [[["add_23", 0, 0, {}]]]}, {"name": "batch_normalization_131", "class_name": "BatchNormalization", "config": {"name": "batch_normalization_131", "trainable": true, "dtype": "float32", "axis": [3], "momentum": 0.99, "epsilon": 0.001, "center": true, "scale": true, "beta_initializer": {"class_name": "Zeros", "config": {"dtype": "float32"}}, "gamma_initializer": {"class_name": "Ones", "config": {"dtype": "float32"}}, "moving_mean_initializer": {"class_name": "Zeros", "config": {"dtype": "float32"}}, "moving_variance_initializer": {"class_name": "Ones", "config": {"dtype": "float32"}}, "beta_regularizer": null, "gamma_regularizer": null, "beta_constraint": null, "gamma_constraint": null}, "inbound_nodes": [[["conv2d_89", 0, 0, {}]]]}, {"name": "re_lu_89", "class_name": "ReLU", "config": {"name": "re_lu_89", "trainable": true, "dtype": "float32", "max_value": null, "negative_slope": {"type": "ndarray", "value": 0.0}, "threshold": {"type": "ndarray", "value": 0.0}}, "inbound_nodes": [[["batch_normalization_131", 0, 0, {}]]]}, {"name": "depthwise_conv2d_42", "class_name": "DepthwiseConv2D", "config": {"name": "depthwise_conv2d_42", "trainable": true, "dtype": "float32", "kernel_size": [3, 3], "strides": [1, 1], "padding": "same", "data_format": "channels_last", "dilation_rate": [1, 1], "activation": "linear", "use_bias": false, "bias_initializer": {"class_name": "Zeros", "config": {"dtype": "float32"}}, "bias_regularizer": null, "activity_regularizer": null, "bias_constraint": null, "depth_multiplier": 1, "depthwise_initializer": {"class_name": "GlorotUniform", "config": {"seed": null, "dtype": "float32"}}, "depthwise_regularizer": null, "depthwise_constraint": null}, "inbound_nodes": [[["re_lu_89", 0, 0, {}]]]}, {"name": "batch_normalization_132", "class_name": "BatchNormalization", "config": {"name": "batch_normalization_132", "trainable": true, "dtype": "float32", "axis": [3], "momentum": 0.99, "epsilon": 0.001, "center": true, "scale": true, "beta_initializer": {"class_name": "Zeros", "config": {"dtype": "float32"}}, "gamma_initializer": {"class_name": "Ones", "config": {"dtype": "float32"}}, "moving_mean_initializer": {"class_name": "Zeros", "config": {"dtype": "float32"}}, "moving_variance_initializer": {"class_name": "Ones", "config": {"dtype": "float32"}}, "beta_regularizer": null, "gamma_regularizer": null, "beta_constraint": null, "gamma_constraint": null}, "inbound_nodes": [[["depthwise_conv2d_42", 0, 0, {}]]]}, {"name": "re_lu_90", "class_name": "ReLU", "config": {"name": "re_lu_90", "trainable": true, "dtype": "float32", "max_value": null, "negative_slope": {"type": "ndarray", "value": 0.0}, "threshold": {"type": "ndarray", "value": 0.0}}, "inbound_nodes": [[["batch_normalization_132", 0, 0, {}]]]}, {"name": "conv2d_90", "class_name": "Conv2D", "config": {"name": "conv2d_90", "trainable": true, "dtype": "float32", "filters": 64, "kernel_size": [1, 1], "strides": [1, 1], "padding": "same", "data_format": "channels_last", "dilation_rate": [1, 1], "activation": "linear", "use_bias": false, "kernel_initializer": {"class_name": "GlorotUniform", "config": {"seed": null, "dtype": "float32"}}, "bias_initializer": {"class_name": "Zeros", "config": {"dtype": "float32"}}, "kernel_regularizer": null, "bias_regularizer": null, "activity_regularizer": null, "kernel_constraint": null, "bias_constraint": null}, "inbound_nodes": [[["re_lu_90", 0, 0, {}]]]}, {"name": "batch_normalization_133", "class_name": "BatchNormalization", "config": {"name": "batch_normalization_133", "trainable": true, "dtype": "float32", "axis": [3], "momentum": 0.99, "epsilon": 0.001, "center": true, "scale": true, "beta_initializer": {"class_name": "Zeros", "config": {"dtype": "float32"}}, "gamma_initializer": {"class_name": "Ones", "config": {"dtype": "float32"}}, "moving_mean_initializer": {"class_name": "Zeros", "config": {"dtype": "float32"}}, "moving_variance_initializer": {"class_name": "Ones", "config": {"dtype": "float32"}}, "beta_regularizer": null, "gamma_regularizer": null, "beta_constraint": null, "gamma_constraint": null}, "inbound_nodes": [[["conv2d_90", 0, 0, {}]]]}, {"name": "add_24", "class_name": "Add", "config": {"name": "add_24", "trainable": true, "dtype": "float32"}, "inbound_nodes": [[["batch_normalization_133", 0, 0, {}], ["add_23", 0, 0, {}]]]}, {"name": "conv2d_91", "class_name": "Conv2D", "config": {"name": "conv2d_91", "trainable": true, "dtype": "float32", "filters": 384, "kernel_size": [1, 1], "strides": [1, 1], "padding": "same", "data_format": "channels_last", "dilation_rate": [1, 1], "activation": "linear", "use_bias": false, "kernel_initializer": {"class_name": "GlorotUniform", "config": {"seed": null, "dtype": "float32"}}, "bias_initializer": {"class_name": "Zeros", "config": {"dtype": "float32"}}, "kernel_regularizer": null, "bias_regularizer": null, "activity_regularizer": null, "kernel_constraint": null, "bias_constraint": null}, "inbound_nodes": [[["add_24", 0, 0, {}]]]}, {"name": "batch_normalization_134", "class_name": "BatchNormalization", "config": {"name": "batch_normalization_134", "trainable": true, "dtype": "float32", "axis": [3], "momentum": 0.99, "epsilon": 0.001, "center": true, "scale": true, "beta_initializer": {"class_name": "Zeros", "config": {"dtype": "float32"}}, "gamma_initializer": {"class_name": "Ones", "config": {"dtype": "float32"}}, "moving_mean_initializer": {"class_name": "Zeros", "config": {"dtype": "float32"}}, "moving_variance_initializer": {"class_name": "Ones", "config": {"dtype": "float32"}}, "beta_regularizer": null, "gamma_regularizer": null, "beta_constraint": null, "gamma_constraint": null}, "inbound_nodes": [[["conv2d_91", 0, 0, {}]]]}, {"name": "re_lu_91", "class_name": "ReLU", "config": {"name": "re_lu_91", "trainable": true, "dtype": "float32", "max_value": null, "negative_slope": {"type": "ndarray", "value": 0.0}, "threshold": {"type": "ndarray", "value": 0.0}}, "inbound_nodes": [[["batch_normalization_134", 0, 0, {}]]]}, {"name": "depthwise_conv2d_43", "class_name": "DepthwiseConv2D", "config": {"name": "depthwise_conv2d_43", "trainable": true, "dtype": "float32", "kernel_size": [3, 3], "strides": [1, 1], "padding": "same", "data_format": "channels_last", "dilation_rate": [1, 1], "activation": "linear", "use_bias": false, "bias_initializer": {"class_name": "Zeros", "config": {"dtype": "float32"}}, "bias_regularizer": null, "activity_regularizer": null, "bias_constraint": null, "depth_multiplier": 1, "depthwise_initializer": {"class_name": "GlorotUniform", "config": {"seed": null, "dtype": "float32"}}, "depthwise_regularizer": null, "depthwise_constraint": null}, "inbound_nodes": [[["re_lu_91", 0, 0, {}]]]}, {"name": "batch_normalization_135", "class_name": "BatchNormalization", "config": {"name": "batch_normalization_135", "trainable": true, "dtype": "float32", "axis": [3], "momentum": 0.99, "epsilon": 0.001, "center": true, "scale": true, "beta_initializer": {"class_name": "Zeros", "config": {"dtype": "float32"}}, "gamma_initializer": {"class_name": "Ones", "config": {"dtype": "float32"}}, "moving_mean_initializer": {"class_name": "Zeros", "config": {"dtype": "float32"}}, "moving_variance_initializer": {"class_name": "Ones", "config": {"dtype": "float32"}}, "beta_regularizer": null, "gamma_regularizer": null, "beta_constraint": null, "gamma_constraint": null}, "inbound_nodes": [[["depthwise_conv2d_43", 0, 0, {}]]]}, {"name": "re_lu_92", "class_name": "ReLU", "config": {"name": "re_lu_92", "trainable": true, "dtype": "float32", "max_value": null, "negative_slope": {"type": "ndarray", "value": 0.0}, "threshold": {"type": "ndarray", "value": 0.0}}, "inbound_nodes": [[["batch_normalization_135", 0, 0, {}]]]}, {"name": "conv2d_92", "class_name": "Conv2D", "config": {"name": "conv2d_92", "trainable": true, "dtype": "float32", "filters": 64, "kernel_size": [1, 1], "strides": [1, 1], "padding": "same", "data_format": "channels_last", "dilation_rate": [1, 1], "activation": "linear", "use_bias": false, "kernel_initializer": {"class_name": "GlorotUniform", "config": {"seed": null, "dtype": "float32"}}, "bias_initializer": {"class_name": "Zeros", "config": {"dtype": "float32"}}, "kernel_regularizer": null, "bias_regularizer": null, "activity_regularizer": null, "kernel_constraint": null, "bias_constraint": null}, "inbound_nodes": [[["re_lu_92", 0, 0, {}]]]}, {"name": "batch_normalization_136", "class_name": "BatchNormalization", "config": {"name": "batch_normalization_136", "trainable": true, "dtype": "float32", "axis": [3], "momentum": 0.99, "epsilon": 0.001, "center": true, "scale": true, "beta_initializer": {"class_name": "Zeros", "config": {"dtype": "float32"}}, "gamma_initializer": {"class_name": "Ones", "config": {"dtype": "float32"}}, "moving_mean_initializer": {"class_name": "Zeros", "config": {"dtype": "float32"}}, "moving_variance_initializer": {"class_name": "Ones", "config": {"dtype": "float32"}}, "beta_regularizer": null, "gamma_regularizer": null, "beta_constraint": null, "gamma_constraint": null}, "inbound_nodes": [[["conv2d_92", 0, 0, {}]]]}, {"name": "add_25", "class_name": "Add", "config": {"name": "add_25", "trainable": true, "dtype": "float32"}, "inbound_nodes": [[["batch_normalization_136", 0, 0, {}], ["add_24", 0, 0, {}]]]}, {"name": "conv2d_93", "class_name": "Conv2D", "config": {"name": "conv2d_93", "trainable": true, "dtype": "float32", "filters": 384, "kernel_size": [1, 1], "strides": [1, 1], "padding": "same", "data_format": "channels_last", "dilation_rate": [1, 1], "activation": "linear", "use_bias": false, "kernel_initializer": {"class_name": "GlorotUniform", "config": {"seed": null, "dtype": "float32"}}, "bias_initializer": {"class_name": "Zeros", "config": {"dtype": "float32"}}, "kernel_regularizer": null, "bias_regularizer": null, "activity_regularizer": null, "kernel_constraint": null, "bias_constraint": null}, "inbound_nodes": [[["add_25", 0, 0, {}]]]}, {"name": "batch_normalization_137", "class_name": "BatchNormalization", "config": {"name": "batch_normalization_137", "trainable": true, "dtype": "float32", "axis": [3], "momentum": 0.99, "epsilon": 0.001, "center": true, "scale": true, "beta_initializer": {"class_name": "Zeros", "config": {"dtype": "float32"}}, "gamma_initializer": {"class_name": "Ones", "config": {"dtype": "float32"}}, "moving_mean_initializer": {"class_name": "Zeros", "config": {"dtype": "float32"}}, "moving_variance_initializer": {"class_name": "Ones", "config": {"dtype": "float32"}}, "beta_regularizer": null, "gamma_regularizer": null, "beta_constraint": null, "gamma_constraint": null}, "inbound_nodes": [[["conv2d_93", 0, 0, {}]]]}, {"name": "re_lu_93", "class_name": "ReLU", "config": {"name": "re_lu_93", "trainable": true, "dtype": "float32", "max_value": null, "negative_slope": {"type": "ndarray", "value": 0.0}, "threshold": {"type": "ndarray", "value": 0.0}}, "inbound_nodes": [[["batch_normalization_137", 0, 0, {}]]]}, {"name": "depthwise_conv2d_44", "class_name": "DepthwiseConv2D", "config": {"name": "depthwise_conv2d_44", "trainable": true, "dtype": "float32", "kernel_size": [3, 3], "strides": [1, 1], "padding": "same", "data_format": "channels_last", "dilation_rate": [1, 1], "activation": "linear", "use_bias": false, "bias_initializer": {"class_name": "Zeros", "config": {"dtype": "float32"}}, "bias_regularizer": null, "activity_regularizer": null, "bias_constraint": null, "depth_multiplier": 1, "depthwise_initializer": {"class_name": "GlorotUniform", "config": {"seed": null, "dtype": "float32"}}, "depthwise_regularizer": null, "depthwise_constraint": null}, "inbound_nodes": [[["re_lu_93", 0, 0, {}]]]}, {"name": "batch_normalization_138", "class_name": "BatchNormalization", "config": {"name": "batch_normalization_138", "trainable": true, "dtype": "float32", "axis": [3], "momentum": 0.99, "epsilon": 0.001, "center": true, "scale": true, "beta_initializer": {"class_name": "Zeros", "config": {"dtype": "float32"}}, "gamma_initializer": {"class_name": "Ones", "config": {"dtype": "float32"}}, "moving_mean_initializer": {"class_name": "Zeros", "config": {"dtype": "float32"}}, "moving_variance_initializer": {"class_name": "Ones", "config": {"dtype": "float32"}}, "beta_regularizer": null, "gamma_regularizer": null, "beta_constraint": null, "gamma_constraint": null}, "inbound_nodes": [[["depthwise_conv2d_44", 0, 0, {}]]]}, {"name": "re_lu_94", "class_name": "ReLU", "config": {"name": "re_lu_94", "trainable": true, "dtype": "float32", "max_value": null, "negative_slope": {"type": "ndarray", "value": 0.0}, "threshold": {"type": "ndarray", "value": 0.0}}, "inbound_nodes": [[["batch_normalization_138", 0, 0, {}]]]}, {"name": "conv2d_94", "class_name": "Conv2D", "config": {"name": "conv2d_94", "trainable": true, "dtype": "float32", "filters": 96, "kernel_size": [1, 1], "strides": [1, 1], "padding": "same", "data_format": "channels_last", "dilation_rate": [1, 1], "activation": "linear", "use_bias": false, "kernel_initializer": {"class_name": "GlorotUniform", "config": {"seed": null, "dtype": "float32"}}, "bias_initializer": {"class_name": "Zeros", "config": {"dtype": "float32"}}, "kernel_regularizer": null, "bias_regularizer": null, "activity_regularizer": null, "kernel_constraint": null, "bias_constraint": null}, "inbound_nodes": [[["re_lu_94", 0, 0, {}]]]}, {"name": "batch_normalization_139", "class_name": "BatchNormalization", "config": {"name": "batch_normalization_139", "trainable": true, "dtype": "float32", "axis": [3], "momentum": 0.99, "epsilon": 0.001, "center": true, "scale": true, "beta_initializer": {"class_name": "Zeros", "config": {"dtype": "float32"}}, "gamma_initializer": {"class_name": "Ones", "config": {"dtype": "float32"}}, "moving_mean_initializer": {"class_name": "Zeros", "config": {"dtype": "float32"}}, "moving_variance_initializer": {"class_name": "Ones", "config": {"dtype": "float32"}}, "beta_regularizer": null, "gamma_regularizer": null, "beta_constraint": null, "gamma_constraint": null}, "inbound_nodes": [[["conv2d_94", 0, 0, {}]]]}, {"name": "conv2d_95", "class_name": "Conv2D", "config": {"name": "conv2d_95", "trainable": true, "dtype": "float32", "filters": 576, "kernel_size": [1, 1], "strides": [1, 1], "padding": "same", "data_format": "channels_last", "dilation_rate": [1, 1], "activation": "linear", "use_bias": false, "kernel_initializer": {"class_name": "GlorotUniform", "config": {"seed": null, "dtype": "float32"}}, "bias_initializer": {"class_name": "Zeros", "config": {"dtype": "float32"}}, "kernel_regularizer": null, "bias_regularizer": null, "activity_regularizer": null, "kernel_constraint": null, "bias_constraint": null}, "inbound_nodes": [[["batch_normalization_139", 0, 0, {}]]]}, {"name": "batch_normalization_140", "class_name": "BatchNormalization", "config": {"name": "batch_normalization_140", "trainable": true, "dtype": "float32", "axis": [3], "momentum": 0.99, "epsilon": 0.001, "center": true, "scale": true, "beta_initializer": {"class_name": "Zeros", "config": {"dtype": "float32"}}, "gamma_initializer": {"class_name": "Ones", "config": {"dtype": "float32"}}, "moving_mean_initializer": {"class_name": "Zeros", "config": {"dtype": "float32"}}, "moving_variance_initializer": {"class_name": "Ones", "config": {"dtype": "float32"}}, "beta_regularizer": null, "gamma_regularizer": null, "beta_constraint": null, "gamma_constraint": null}, "inbound_nodes": [[["conv2d_95", 0, 0, {}]]]}, {"name": "re_lu_95", "class_name": "ReLU", "config": {"name": "re_lu_95", "trainable": true, "dtype": "float32", "max_value": null, "negative_slope": {"type": "ndarray", "value": 0.0}, "threshold": {"type": "ndarray", "value": 0.0}}, "inbound_nodes": [[["batch_normalization_140", 0, 0, {}]]]}, {"name": "depthwise_conv2d_45", "class_name": "DepthwiseConv2D", "config": {"name": "depthwise_conv2d_45", "trainable": true, "dtype": "float32", "kernel_size": [3, 3], "strides": [1, 1], "padding": "same", "data_format": "channels_last", "dilation_rate": [1, 1], "activation": "linear", "use_bias": false, "bias_initializer": {"class_name": "Zeros", "config": {"dtype": "float32"}}, "bias_regularizer": null, "activity_regularizer": null, "bias_constraint": null, "depth_multiplier": 1, "depthwise_initializer": {"class_name": "GlorotUniform", "config": {"seed": null, "dtype": "float32"}}, "depthwise_regularizer": null, "depthwise_constraint": null}, "inbound_nodes": [[["re_lu_95", 0, 0, {}]]]}, {"name": "batch_normalization_141", "class_name": "BatchNormalization", "config": {"name": "batch_normalization_141", "trainable": true, "dtype": "float32", "axis": [3], "momentum": 0.99, "epsilon": 0.001, "center": true, "scale": true, "beta_initializer": {"class_name": "Zeros", "config": {"dtype": "float32"}}, "gamma_initializer": {"class_name": "Ones", "config": {"dtype": "float32"}}, "moving_mean_initializer": {"class_name": "Zeros", "config": {"dtype": "float32"}}, "moving_variance_initializer": {"class_name": "Ones", "config": {"dtype": "float32"}}, "beta_regularizer": null, "gamma_regularizer": null, "beta_constraint": null, "gamma_constraint": null}, "inbound_nodes": [[["depthwise_conv2d_45", 0, 0, {}]]]}, {"name": "re_lu_96", "class_name": "ReLU", "config": {"name": "re_lu_96", "trainable": true, "dtype": "float32", "max_value": null, "negative_slope": {"type": "ndarray", "value": 0.0}, "threshold": {"type": "ndarray", "value": 0.0}}, "inbound_nodes": [[["batch_normalization_141", 0, 0, {}]]]}, {"name": "conv2d_96", "class_name": "Conv2D", "config": {"name": "conv2d_96", "trainable": true, "dtype": "float32", "filters": 96, "kernel_size": [1, 1], "strides": [1, 1], "padding": "same", "data_format": "channels_last", "dilation_rate": [1, 1], "activation": "linear", "use_bias": false, "kernel_initializer": {"class_name": "GlorotUniform", "config": {"seed": null, "dtype": "float32"}}, "bias_initializer": {"class_name": "Zeros", "config": {"dtype": "float32"}}, "kernel_regularizer": null, "bias_regularizer": null, "activity_regularizer": null, "kernel_constraint": null, "bias_constraint": null}, "inbound_nodes": [[["re_lu_96", 0, 0, {}]]]}, {"name": "batch_normalization_142", "class_name": "BatchNormalization", "config": {"name": "batch_normalization_142", "trainable": true, "dtype": "float32", "axis": [3], "momentum": 0.99, "epsilon": 0.001, "center": true, "scale": true, "beta_initializer": {"class_name": "Zeros", "config": {"dtype": "float32"}}, "gamma_initializer": {"class_name": "Ones", "config": {"dtype": "float32"}}, "moving_mean_initializer": {"class_name": "Zeros", "config": {"dtype": "float32"}}, "moving_variance_initializer": {"class_name": "Ones", "config": {"dtype": "float32"}}, "beta_regularizer": null, "gamma_regularizer": null, "beta_constraint": null, "gamma_constraint": null}, "inbound_nodes": [[["conv2d_96", 0, 0, {}]]]}, {"name": "add_26", "class_name": "Add", "config": {"name": "add_26", "trainable": true, "dtype": "float32"}, "inbound_nodes": [[["batch_normalization_142", 0, 0, {}], ["batch_normalization_139", 0, 0, {}]]]}, {"name": "conv2d_97", "class_name": "Conv2D", "config": {"name": "conv2d_97", "trainable": true, "dtype": "float32", "filters": 576, "kernel_size": [1, 1], "strides": [1, 1], "padding": "same", "data_format": "channels_last", "dilation_rate": [1, 1], "activation": "linear", "use_bias": false, "kernel_initializer": {"class_name": "GlorotUniform", "config": {"seed": null, "dtype": "float32"}}, "bias_initializer": {"class_name": "Zeros", "config": {"dtype": "float32"}}, "kernel_regularizer": null, "bias_regularizer": null, "activity_regularizer": null, "kernel_constraint": null, "bias_constraint": null}, "inbound_nodes": [[["add_26", 0, 0, {}]]]}, {"name": "batch_normalization_143", "class_name": "BatchNormalization", "config": {"name": "batch_normalization_143", "trainable": true, "dtype": "float32", "axis": [3], "momentum": 0.99, "epsilon": 0.001, "center": true, "scale": true, "beta_initializer": {"class_name": "Zeros", "config": {"dtype": "float32"}}, "gamma_initializer": {"class_name": "Ones", "config": {"dtype": "float32"}}, "moving_mean_initializer": {"class_name": "Zeros", "config": {"dtype": "float32"}}, "moving_variance_initializer": {"class_name": "Ones", "config": {"dtype": "float32"}}, "beta_regularizer": null, "gamma_regularizer": null, "beta_constraint": null, "gamma_constraint": null}, "inbound_nodes": [[["conv2d_97", 0, 0, {}]]]}, {"name": "re_lu_97", "class_name": "ReLU", "config": {"name": "re_lu_97", "trainable": true, "dtype": "float32", "max_value": null, "negative_slope": {"type": "ndarray", "value": 0.0}, "threshold": {"type": "ndarray", "value": 0.0}}, "inbound_nodes": [[["batch_normalization_143", 0, 0, {}]]]}, {"name": "depthwise_conv2d_46", "class_name": "DepthwiseConv2D", "config": {"name": "depthwise_conv2d_46", "trainable": true, "dtype": "float32", "kernel_size": [3, 3], "strides": [1, 1], "padding": "same", "data_format": "channels_last", "dilation_rate": [1, 1], "activation": "linear", "use_bias": false, "bias_initializer": {"class_name": "Zeros", "config": {"dtype": "float32"}}, "bias_regularizer": null, "activity_regularizer": null, "bias_constraint": null, "depth_multiplier": 1, "depthwise_initializer": {"class_name": "GlorotUniform", "config": {"seed": null, "dtype": "float32"}}, "depthwise_regularizer": null, "depthwise_constraint": null}, "inbound_nodes": [[["re_lu_97", 0, 0, {}]]]}, {"name": "batch_normalization_144", "class_name": "BatchNormalization", "config": {"name": "batch_normalization_144", "trainable": true, "dtype": "float32", "axis": [3], "momentum": 0.99, "epsilon": 0.001, "center": true, "scale": true, "beta_initializer": {"class_name": "Zeros", "config": {"dtype": "float32"}}, "gamma_initializer": {"class_name": "Ones", "config": {"dtype": "float32"}}, "moving_mean_initializer": {"class_name": "Zeros", "config": {"dtype": "float32"}}, "moving_variance_initializer": {"class_name": "Ones", "config": {"dtype": "float32"}}, "beta_regularizer": null, "gamma_regularizer": null, "beta_constraint": null, "gamma_constraint": null}, "inbound_nodes": [[["depthwise_conv2d_46", 0, 0, {}]]]}, {"name": "re_lu_98", "class_name": "ReLU", "config": {"name": "re_lu_98", "trainable": true, "dtype": "float32", "max_value": null, "negative_slope": {"type": "ndarray", "value": 0.0}, "threshold": {"type": "ndarray", "value": 0.0}}, "inbound_nodes": [[["batch_normalization_144", 0, 0, {}]]]}, {"name": "conv2d_98", "class_name": "Conv2D", "config": {"name": "conv2d_98", "trainable": true, "dtype": "float32", "filters": 96, "kernel_size": [1, 1], "strides": [1, 1], "padding": "same", "data_format": "channels_last", "dilation_rate": [1, 1], "activation": "linear", "use_bias": false, "kernel_initializer": {"class_name": "GlorotUniform", "config": {"seed": null, "dtype": "float32"}}, "bias_initializer": {"class_name": "Zeros", "config": {"dtype": "float32"}}, "kernel_regularizer": null, "bias_regularizer": null, "activity_regularizer": null, "kernel_constraint": null, "bias_constraint": null}, "inbound_nodes": [[["re_lu_98", 0, 0, {}]]]}, {"name": "batch_normalization_145", "class_name": "BatchNormalization", "config": {"name": "batch_normalization_145", "trainable": true, "dtype": "float32", "axis": [3], "momentum": 0.99, "epsilon": 0.001, "center": true, "scale": true, "beta_initializer": {"class_name": "Zeros", "config": {"dtype": "float32"}}, "gamma_initializer": {"class_name": "Ones", "config": {"dtype": "float32"}}, "moving_mean_initializer": {"class_name": "Zeros", "config": {"dtype": "float32"}}, "moving_variance_initializer": {"class_name": "Ones", "config": {"dtype": "float32"}}, "beta_regularizer": null, "gamma_regularizer": null, "beta_constraint": null, "gamma_constraint": null}, "inbound_nodes": [[["conv2d_98", 0, 0, {}]]]}, {"name": "add_27", "class_name": "Add", "config": {"name": "add_27", "trainable": true, "dtype": "float32"}, "inbound_nodes": [[["batch_normalization_145", 0, 0, {}], ["add_26", 0, 0, {}]]]}, {"name": "conv2d_99", "class_name": "Conv2D", "config": {"name": "conv2d_99", "trainable": true, "dtype": "float32", "filters": 576, "kernel_size": [1, 1], "strides": [1, 1], "padding": "same", "data_format": "channels_last", "dilation_rate": [1, 1], "activation": "linear", "use_bias": false, "kernel_initializer": {"class_name": "GlorotUniform", "config": {"seed": null, "dtype": "float32"}}, "bias_initializer": {"class_name": "Zeros", "config": {"dtype": "float32"}}, "kernel_regularizer": null, "bias_regularizer": null, "activity_regularizer": null, "kernel_constraint": null, "bias_constraint": null}, "inbound_nodes": [[["add_27", 0, 0, {}]]]}, {"name": "batch_normalization_146", "class_name": "BatchNormalization", "config": {"name": "batch_normalization_146", "trainable": true, "dtype": "float32", "axis": [3], "momentum": 0.99, "epsilon": 0.001, "center": true, "scale": true, "beta_initializer": {"class_name": "Zeros", "config": {"dtype": "float32"}}, "gamma_initializer": {"class_name": "Ones", "config": {"dtype": "float32"}}, "moving_mean_initializer": {"class_name": "Zeros", "config": {"dtype": "float32"}}, "moving_variance_initializer": {"class_name": "Ones", "config": {"dtype": "float32"}}, "beta_regularizer": null, "gamma_regularizer": null, "beta_constraint": null, "gamma_constraint": null}, "inbound_nodes": [[["conv2d_99", 0, 0, {}]]]}, {"name": "re_lu_99", "class_name": "ReLU", "config": {"name": "re_lu_99", "trainable": true, "dtype": "float32", "max_value": null, "negative_slope": {"type": "ndarray", "value": 0.0}, "threshold": {"type": "ndarray", "value": 0.0}}, "inbound_nodes": [[["batch_normalization_146", 0, 0, {}]]]}, {"name": "depthwise_conv2d_47", "class_name": "DepthwiseConv2D", "config": {"name": "depthwise_conv2d_47", "trainable": true, "dtype": "float32", "kernel_size": [3, 3], "strides": [2, 2], "padding": "same", "data_format": "channels_last", "dilation_rate": [1, 1], "activation": "linear", "use_bias": false, "bias_initializer": {"class_name": "Zeros", "config": {"dtype": "float32"}}, "bias_regularizer": null, "activity_regularizer": null, "bias_constraint": null, "depth_multiplier": 1, "depthwise_initializer": {"class_name": "GlorotUniform", "config": {"seed": null, "dtype": "float32"}}, "depthwise_regularizer": null, "depthwise_constraint": null}, "inbound_nodes": [[["re_lu_99", 0, 0, {}]]]}, {"name": "batch_normalization_147", "class_name": "BatchNormalization", "config": {"name": "batch_normalization_147", "trainable": true, "dtype": "float32", "axis": [3], "momentum": 0.99, "epsilon": 0.001, "center": true, "scale": true, "beta_initializer": {"class_name": "Zeros", "config": {"dtype": "float32"}}, "gamma_initializer": {"class_name": "Ones", "config": {"dtype": "float32"}}, "moving_mean_initializer": {"class_name": "Zeros", "config": {"dtype": "float32"}}, "moving_variance_initializer": {"class_name": "Ones", "config": {"dtype": "float32"}}, "beta_regularizer": null, "gamma_regularizer": null, "beta_constraint": null, "gamma_constraint": null}, "inbound_nodes": [[["depthwise_conv2d_47", 0, 0, {}]]]}, {"name": "re_lu_100", "class_name": "ReLU", "config": {"name": "re_lu_100", "trainable": true, "dtype": "float32", "max_value": null, "negative_slope": {"type": "ndarray", "value": 0.0}, "threshold": {"type": "ndarray", "value": 0.0}}, "inbound_nodes": [[["batch_normalization_147", 0, 0, {}]]]}, {"name": "conv2d_100", "class_name": "Conv2D", "config": {"name": "conv2d_100", "trainable": true, "dtype": "float32", "filters": 160, "kernel_size": [1, 1], "strides": [1, 1], "padding": "same", "data_format": "channels_last", "dilation_rate": [1, 1], "activation": "linear", "use_bias": false, "kernel_initializer": {"class_name": "GlorotUniform", "config": {"seed": null, "dtype": "float32"}}, "bias_initializer": {"class_name": "Zeros", "config": {"dtype": "float32"}}, "kernel_regularizer": null, "bias_regularizer": null, "activity_regularizer": null, "kernel_constraint": null, "bias_constraint": null}, "inbound_nodes": [[["re_lu_100", 0, 0, {}]]]}, {"name": "batch_normalization_148", "class_name": "BatchNormalization", "config": {"name": "batch_normalization_148", "trainable": true, "dtype": "float32", "axis": [3], "momentum": 0.99, "epsilon": 0.001, "center": true, "scale": true, "beta_initializer": {"class_name": "Zeros", "config": {"dtype": "float32"}}, "gamma_initializer": {"class_name": "Ones", "config": {"dtype": "float32"}}, "moving_mean_initializer": {"class_name": "Zeros", "config": {"dtype": "float32"}}, "moving_variance_initializer": {"class_name": "Ones", "config": {"dtype": "float32"}}, "beta_regularizer": null, "gamma_regularizer": null, "beta_constraint": null, "gamma_constraint": null}, "inbound_nodes": [[["conv2d_100", 0, 0, {}]]]}, {"name": "conv2d_101", "class_name": "Conv2D", "config": {"name": "conv2d_101", "trainable": true, "dtype": "float32", "filters": 960, "kernel_size": [1, 1], "strides": [1, 1], "padding": "same", "data_format": "channels_last", "dilation_rate": [1, 1], "activation": "linear", "use_bias": false, "kernel_initializer": {"class_name": "GlorotUniform", "config": {"seed": null, "dtype": "float32"}}, "bias_initializer": {"class_name": "Zeros", "config": {"dtype": "float32"}}, "kernel_regularizer": null, "bias_regularizer": null, "activity_regularizer": null, "kernel_constraint": null, "bias_constraint": null}, "inbound_nodes": [[["batch_normalization_148", 0, 0, {}]]]}, {"name": "batch_normalization_149", "class_name": "BatchNormalization", "config": {"name": "batch_normalization_149", "trainable": true, "dtype": "float32", "axis": [3], "momentum": 0.99, "epsilon": 0.001, "center": true, "scale": true, "beta_initializer": {"class_name": "Zeros", "config": {"dtype": "float32"}}, "gamma_initializer": {"class_name": "Ones", "config": {"dtype": "float32"}}, "moving_mean_initializer": {"class_name": "Zeros", "config": {"dtype": "float32"}}, "moving_variance_initializer": {"class_name": "Ones", "config": {"dtype": "float32"}}, "beta_regularizer": null, "gamma_regularizer": null, "beta_constraint": null, "gamma_constraint": null}, "inbound_nodes": [[["conv2d_101", 0, 0, {}]]]}, {"name": "re_lu_101", "class_name": "ReLU", "config": {"name": "re_lu_101", "trainable": true, "dtype": "float32", "max_value": null, "negative_slope": {"type": "ndarray", "value": 0.0}, "threshold": {"type": "ndarray", "value": 0.0}}, "inbound_nodes": [[["batch_normalization_149", 0, 0, {}]]]}, {"name": "depthwise_conv2d_48", "class_name": "DepthwiseConv2D", "config": {"name": "depthwise_conv2d_48", "trainable": true, "dtype": "float32", "kernel_size": [3, 3], "strides": [1, 1], "padding": "same", "data_format": "channels_last", "dilation_rate": [1, 1], "activation": "linear", "use_bias": false, "bias_initializer": {"class_name": "Zeros", "config": {"dtype": "float32"}}, "bias_regularizer": null, "activity_regularizer": null, "bias_constraint": null, "depth_multiplier": 1, "depthwise_initializer": {"class_name": "GlorotUniform", "config": {"seed": null, "dtype": "float32"}}, "depthwise_regularizer": null, "depthwise_constraint": null}, "inbound_nodes": [[["re_lu_101", 0, 0, {}]]]}, {"name": "batch_normalization_150", "class_name": "BatchNormalization", "config": {"name": "batch_normalization_150", "trainable": true, "dtype": "float32", "axis": [3], "momentum": 0.99, "epsilon": 0.001, "center": true, "scale": true, "beta_initializer": {"class_name": "Zeros", "config": {"dtype": "float32"}}, "gamma_initializer": {"class_name": "Ones", "config": {"dtype": "float32"}}, "moving_mean_initializer": {"class_name": "Zeros", "config": {"dtype": "float32"}}, "moving_variance_initializer": {"class_name": "Ones", "config": {"dtype": "float32"}}, "beta_regularizer": null, "gamma_regularizer": null, "beta_constraint": null, "gamma_constraint": null}, "inbound_nodes": [[["depthwise_conv2d_48", 0, 0, {}]]]}, {"name": "re_lu_102", "class_name": "ReLU", "config": {"name": "re_lu_102", "trainable": true, "dtype": "float32", "max_value": null, "negative_slope": {"type": "ndarray", "value": 0.0}, "threshold": {"type": "ndarray", "value": 0.0}}, "inbound_nodes": [[["batch_normalization_150", 0, 0, {}]]]}, {"name": "conv2d_102", "class_name": "Conv2D", "config": {"name": "conv2d_102", "trainable": true, "dtype": "float32", "filters": 160, "kernel_size": [1, 1], "strides": [1, 1], "padding": "same", "data_format": "channels_last", "dilation_rate": [1, 1], "activation": "linear", "use_bias": false, "kernel_initializer": {"class_name": "GlorotUniform", "config": {"seed": null, "dtype": "float32"}}, "bias_initializer": {"class_name": "Zeros", "config": {"dtype": "float32"}}, "kernel_regularizer": null, "bias_regularizer": null, "activity_regularizer": null, "kernel_constraint": null, "bias_constraint": null}, "inbound_nodes": [[["re_lu_102", 0, 0, {}]]]}, {"name": "batch_normalization_151", "class_name": "BatchNormalization", "config": {"name": "batch_normalization_151", "trainable": true, "dtype": "float32", "axis": [3], "momentum": 0.99, "epsilon": 0.001, "center": true, "scale": true, "beta_initializer": {"class_name": "Zeros", "config": {"dtype": "float32"}}, "gamma_initializer": {"class_name": "Ones", "config": {"dtype": "float32"}}, "moving_mean_initializer": {"class_name": "Zeros", "config": {"dtype": "float32"}}, "moving_variance_initializer": {"class_name": "Ones", "config": {"dtype": "float32"}}, "beta_regularizer": null, "gamma_regularizer": null, "beta_constraint": null, "gamma_constraint": null}, "inbound_nodes": [[["conv2d_102", 0, 0, {}]]]}, {"name": "add_28", "class_name": "Add", "config": {"name": "add_28", "trainable": true, "dtype": "float32"}, "inbound_nodes": [[["batch_normalization_151", 0, 0, {}], ["batch_normalization_148", 0, 0, {}]]]}, {"name": "conv2d_103", "class_name": "Conv2D", "config": {"name": "conv2d_103", "trainable": true, "dtype": "float32", "filters": 960, "kernel_size": [1, 1], "strides": [1, 1], "padding": "same", "data_format": "channels_last", "dilation_rate": [1, 1], "activation": "linear", "use_bias": false, "kernel_initializer": {"class_name": "GlorotUniform", "config": {"seed": null, "dtype": "float32"}}, "bias_initializer": {"class_name": "Zeros", "config": {"dtype": "float32"}}, "kernel_regularizer": null, "bias_regularizer": null, "activity_regularizer": null, "kernel_constraint": null, "bias_constraint": null}, "inbound_nodes": [[["add_28", 0, 0, {}]]]}, {"name": "batch_normalization_152", "class_name": "BatchNormalization", "config": {"name": "batch_normalization_152", "trainable": true, "dtype": "float32", "axis": [3], "momentum": 0.99, "epsilon": 0.001, "center": true, "scale": true, "beta_initializer": {"class_name": "Zeros", "config": {"dtype": "float32"}}, "gamma_initializer": {"class_name": "Ones", "config": {"dtype": "float32"}}, "moving_mean_initializer": {"class_name": "Zeros", "config": {"dtype": "float32"}}, "moving_variance_initializer": {"class_name": "Ones", "config": {"dtype": "float32"}}, "beta_regularizer": null, "gamma_regularizer": null, "beta_constraint": null, "gamma_constraint": null}, "inbound_nodes": [[["conv2d_103", 0, 0, {}]]]}, {"name": "re_lu_103", "class_name": "ReLU", "config": {"name": "re_lu_103", "trainable": true, "dtype": "float32", "max_value": null, "negative_slope": {"type": "ndarray", "value": 0.0}, "threshold": {"type": "ndarray", "value": 0.0}}, "inbound_nodes": [[["batch_normalization_152", 0, 0, {}]]]}, {"name": "depthwise_conv2d_49", "class_name": "DepthwiseConv2D", "config": {"name": "depthwise_conv2d_49", "trainable": true, "dtype": "float32", "kernel_size": [3, 3], "strides": [1, 1], "padding": "same", "data_format": "channels_last", "dilation_rate": [1, 1], "activation": "linear", "use_bias": false, "bias_initializer": {"class_name": "Zeros", "config": {"dtype": "float32"}}, "bias_regularizer": null, "activity_regularizer": null, "bias_constraint": null, "depth_multiplier": 1, "depthwise_initializer": {"class_name": "GlorotUniform", "config": {"seed": null, "dtype": "float32"}}, "depthwise_regularizer": null, "depthwise_constraint": null}, "inbound_nodes": [[["re_lu_103", 0, 0, {}]]]}, {"name": "batch_normalization_153", "class_name": "BatchNormalization", "config": {"name": "batch_normalization_153", "trainable": true, "dtype": "float32", "axis": [3], "momentum": 0.99, "epsilon": 0.001, "center": true, "scale": true, "beta_initializer": {"class_name": "Zeros", "config": {"dtype": "float32"}}, "gamma_initializer": {"class_name": "Ones", "config": {"dtype": "float32"}}, "moving_mean_initializer": {"class_name": "Zeros", "config": {"dtype": "float32"}}, "moving_variance_initializer": {"class_name": "Ones", "config": {"dtype": "float32"}}, "beta_regularizer": null, "gamma_regularizer": null, "beta_constraint": null, "gamma_constraint": null}, "inbound_nodes": [[["depthwise_conv2d_49", 0, 0, {}]]]}, {"name": "re_lu_104", "class_name": "ReLU", "config": {"name": "re_lu_104", "trainable": true, "dtype": "float32", "max_value": null, "negative_slope": {"type": "ndarray", "value": 0.0}, "threshold": {"type": "ndarray", "value": 0.0}}, "inbound_nodes": [[["batch_normalization_153", 0, 0, {}]]]}, {"name": "conv2d_104", "class_name": "Conv2D", "config": {"name": "conv2d_104", "trainable": true, "dtype": "float32", "filters": 160, "kernel_size": [1, 1], "strides": [1, 1], "padding": "same", "data_format": "channels_last", "dilation_rate": [1, 1], "activation": "linear", "use_bias": false, "kernel_initializer": {"class_name": "GlorotUniform", "config": {"seed": null, "dtype": "float32"}}, "bias_initializer": {"class_name": "Zeros", "config": {"dtype": "float32"}}, "kernel_regularizer": null, "bias_regularizer": null, "activity_regularizer": null, "kernel_constraint": null, "bias_constraint": null}, "inbound_nodes": [[["re_lu_104", 0, 0, {}]]]}, {"name": "batch_normalization_154", "class_name": "BatchNormalization", "config": {"name": "batch_normalization_154", "trainable": true, "dtype": "float32", "axis": [3], "momentum": 0.99, "epsilon": 0.001, "center": true, "scale": true, "beta_initializer": {"class_name": "Zeros", "config": {"dtype": "float32"}}, "gamma_initializer": {"class_name": "Ones", "config": {"dtype": "float32"}}, "moving_mean_initializer": {"class_name": "Zeros", "config": {"dtype": "float32"}}, "moving_variance_initializer": {"class_name": "Ones", "config": {"dtype": "float32"}}, "beta_regularizer": null, "gamma_regularizer": null, "beta_constraint": null, "gamma_constraint": null}, "inbound_nodes": [[["conv2d_104", 0, 0, {}]]]}, {"name": "add_29", "class_name": "Add", "config": {"name": "add_29", "trainable": true, "dtype": "float32"}, "inbound_nodes": [[["batch_normalization_154", 0, 0, {}], ["add_28", 0, 0, {}]]]}, {"name": "conv2d_105", "class_name": "Conv2D", "config": {"name": "conv2d_105", "trainable": true, "dtype": "float32", "filters": 960, "kernel_size": [1, 1], "strides": [1, 1], "padding": "same", "data_format": "channels_last", "dilation_rate": [1, 1], "activation": "linear", "use_bias": false, "kernel_initializer": {"class_name": "GlorotUniform", "config": {"seed": null, "dtype": "float32"}}, "bias_initializer": {"class_name": "Zeros", "config": {"dtype": "float32"}}, "kernel_regularizer": null, "bias_regularizer": null, "activity_regularizer": null, "kernel_constraint": null, "bias_constraint": null}, "inbound_nodes": [[["add_29", 0, 0, {}]]]}, {"name": "batch_normalization_155", "class_name": "BatchNormalization", "config": {"name": "batch_normalization_155", "trainable": true, "dtype": "float32", "axis": [3], "momentum": 0.99, "epsilon": 0.001, "center": true, "scale": true, "beta_initializer": {"class_name": "Zeros", "config": {"dtype": "float32"}}, "gamma_initializer": {"class_name": "Ones", "config": {"dtype": "float32"}}, "moving_mean_initializer": {"class_name": "Zeros", "config": {"dtype": "float32"}}, "moving_variance_initializer": {"class_name": "Ones", "config": {"dtype": "float32"}}, "beta_regularizer": null, "gamma_regularizer": null, "beta_constraint": null, "gamma_constraint": null}, "inbound_nodes": [[["conv2d_105", 0, 0, {}]]]}, {"name": "re_lu_105", "class_name": "ReLU", "config": {"name": "re_lu_105", "trainable": true, "dtype": "float32", "max_value": null, "negative_slope": {"type": "ndarray", "value": 0.0}, "threshold": {"type": "ndarray", "value": 0.0}}, "inbound_nodes": [[["batch_normalization_155", 0, 0, {}]]]}, {"name": "depthwise_conv2d_50", "class_name": "DepthwiseConv2D", "config": {"name": "depthwise_conv2d_50", "trainable": true, "dtype": "float32", "kernel_size": [3, 3], "strides": [1, 1], "padding": "same", "data_format": "channels_last", "dilation_rate": [1, 1], "activation": "linear", "use_bias": false, "bias_initializer": {"class_name": "Zeros", "config": {"dtype": "float32"}}, "bias_regularizer": null, "activity_regularizer": null, "bias_constraint": null, "depth_multiplier": 1, "depthwise_initializer": {"class_name": "GlorotUniform", "config": {"seed": null, "dtype": "float32"}}, "depthwise_regularizer": null, "depthwise_constraint": null}, "inbound_nodes": [[["re_lu_105", 0, 0, {}]]]}, {"name": "batch_normalization_156", "class_name": "BatchNormalization", "config": {"name": "batch_normalization_156", "trainable": true, "dtype": "float32", "axis": [3], "momentum": 0.99, "epsilon": 0.001, "center": true, "scale": true, "beta_initializer": {"class_name": "Zeros", "config": {"dtype": "float32"}}, "gamma_initializer": {"class_name": "Ones", "config": {"dtype": "float32"}}, "moving_mean_initializer": {"class_name": "Zeros", "config": {"dtype": "float32"}}, "moving_variance_initializer": {"class_name": "Ones", "config": {"dtype": "float32"}}, "beta_regularizer": null, "gamma_regularizer": null, "beta_constraint": null, "gamma_constraint": null}, "inbound_nodes": [[["depthwise_conv2d_50", 0, 0, {}]]]}, {"name": "re_lu_106", "class_name": "ReLU", "config": {"name": "re_lu_106", "trainable": true, "dtype": "float32", "max_value": null, "negative_slope": {"type": "ndarray", "value": 0.0}, "threshold": {"type": "ndarray", "value": 0.0}}, "inbound_nodes": [[["batch_normalization_156", 0, 0, {}]]]}, {"name": "conv2d_106", "class_name": "Conv2D", "config": {"name": "conv2d_106", "trainable": true, "dtype": "float32", "filters": 320, "kernel_size": [1, 1], "strides": [1, 1], "padding": "same", "data_format": "channels_last", "dilation_rate": [1, 1], "activation": "linear", "use_bias": false, "kernel_initializer": {"class_name": "GlorotUniform", "config": {"seed": null, "dtype": "float32"}}, "bias_initializer": {"class_name": "Zeros", "config": {"dtype": "float32"}}, "kernel_regularizer": null, "bias_regularizer": null, "activity_regularizer": null, "kernel_constraint": null, "bias_constraint": null}, "inbound_nodes": [[["re_lu_106", 0, 0, {}]]]}, {"name": "batch_normalization_157", "class_name": "BatchNormalization", "config": {"name": "batch_normalization_157", "trainable": true, "dtype": "float32", "axis": [3], "momentum": 0.99, "epsilon": 0.001, "center": true, "scale": true, "beta_initializer": {"class_name": "Zeros", "config": {"dtype": "float32"}}, "gamma_initializer": {"class_name": "Ones", "config": {"dtype": "float32"}}, "moving_mean_initializer": {"class_name": "Zeros", "config": {"dtype": "float32"}}, "moving_variance_initializer": {"class_name": "Ones", "config": {"dtype": "float32"}}, "beta_regularizer": null, "gamma_regularizer": null, "beta_constraint": null, "gamma_constraint": null}, "inbound_nodes": [[["conv2d_106", 0, 0, {}]]]}, {"name": "conv2d_107", "class_name": "Conv2D", "config": {"name": "conv2d_107", "trainable": true, "dtype": "float32", "filters": 1280, "kernel_size": [3, 3], "strides": [1, 1], "padding": "same", "data_format": "channels_last", "dilation_rate": [1, 1], "activation": "linear", "use_bias": false, "kernel_initializer": {"class_name": "GlorotUniform", "config": {"seed": null, "dtype": "float32"}}, "bias_initializer": {"class_name": "Zeros", "config": {"dtype": "float32"}}, "kernel_regularizer": null, "bias_regularizer": null, "activity_regularizer": null, "kernel_constraint": null, "bias_constraint": null}, "inbound_nodes": [[["batch_normalization_157", 0, 0, {}]]]}, {"name": "batch_normalization_158", "class_name": "BatchNormalization", "config": {"name": "batch_normalization_158", "trainable": true, "dtype": "float32", "axis": [3], "momentum": 0.99, "epsilon": 0.001, "center": true, "scale": true, "beta_initializer": {"class_name": "Zeros", "config": {"dtype": "float32"}}, "gamma_initializer": {"class_name": "Ones", "config": {"dtype": "float32"}}, "moving_mean_initializer": {"class_name": "Zeros", "config": {"dtype": "float32"}}, "moving_variance_initializer": {"class_name": "Ones", "config": {"dtype": "float32"}}, "beta_regularizer": null, "gamma_regularizer": null, "beta_constraint": null, "gamma_constraint": null}, "inbound_nodes": [[["conv2d_107", 0, 0, {}]]]}, {"name": "re_lu_107", "class_name": "ReLU", "config": {"name": "re_lu_107", "trainable": true, "dtype": "float32", "max_value": null, "negative_slope": {"type": "ndarray", "value": 0.0}, "threshold": {"type": "ndarray", "value": 0.0}}, "inbound_nodes": [[["batch_normalization_158", 0, 0, {}]]]}, {"name": "average_pooling2d_2", "class_name": "AveragePooling2D", "config": {"name": "average_pooling2d_2", "trainable": true, "dtype": "float32", "pool_size": [7, 7], "padding": "same", "strides": [7, 7], "data_format": "channels_last"}, "inbound_nodes": [[["re_lu_107", 0, 0, {}]]]}, {"name": "flatten_2", "class_name": "Flatten", "config": {"name": "flatten_2", "trainable": true, "dtype": "float32", "data_format": "channels_last"}, "inbound_nodes": [[["average_pooling2d_2", 0, 0, {}]]]}, {"name": "dense_2", "class_name": "Dense", "config": {"name": "dense_2", "trainable": true, "dtype": "float32", "units": 24, "activation": "softmax", "use_bias": true, "kernel_initializer": {"class_name": "GlorotUniform", "config": {"seed": null, "dtype": "float32"}}, "bias_initializer": {"class_name": "Zeros", "config": {"dtype": "float32"}}, "kernel_regularizer": null, "bias_regularizer": null, "activity_regularizer": null, "kernel_constraint": null, "bias_constraint": null}, "inbound_nodes": [[["flatten_2", 0, 0, {}]]]}], "input_layers": [["input_3", 0, 0]], "output_layers": [["dense_2", 0, 0]]}}, "training_config": {"optimizer_config": {"class_name": "Adam", "config": {"lr": 0.0010000000474974513, "beta_1": 0.8999999761581421, "beta_2": 0.9990000128746033, "decay": 0.0, "epsilon": 1e-07, "amsgrad": false}}, "loss": "sparse_categorical_crossentropy", "metrics": ["accuracy"], "weighted_metrics": null, "sample_weight_mode": null, "loss_weights": null}}, "weightsManifest": [{"paths": ["group1-shard1of6", "group1-shard2of6", "group1-shard3of6", "group1-shard4of6", "group1-shard5of6", "group1-shard6of6"], "weights": [{"name": "batch_normalization_106/gamma", "shape": [32], "dtype": "float32"}, {"name": "batch_normalization_106/beta", "shape": [32], "dtype": "float32"}, {"name": "batch_normalization_106/moving_mean", "shape": [32], "dtype": "float32"}, {"name": "batch_normalization_106/moving_variance", "shape": [32], "dtype": "float32"}, {"name": "batch_normalization_107/gamma", "shape": [32], "dtype": "float32"}, {"name": "batch_normalization_107/beta", "shape": [32], "dtype": "float32"}, {"name": "batch_normalization_107/moving_mean", "shape": [32], "dtype": "float32"}, {"name": "batch_normalization_107/moving_variance", "shape": [32], "dtype": "float32"}, {"name": "batch_normalization_108/gamma", "shape": [32], "dtype": "float32"}, {"name": "batch_normalization_108/beta", "shape": [32], "dtype": "float32"}, {"name": "batch_normalization_108/moving_mean", "shape": [32], "dtype": "float32"}, {"name": "batch_normalization_108/moving_variance", "shape": [32], "dtype": "float32"}, {"name": "batch_normalization_109/gamma", "shape": [16], "dtype": "float32"}, {"name": "batch_normalization_109/beta", "shape": [16], "dtype": "float32"}, {"name": "batch_normalization_109/moving_mean", "shape": [16], "dtype": "float32"}, {"name": "batch_normalization_109/moving_variance", "shape": [16], "dtype": "float32"}, {"name": "batch_normalization_110/gamma", "shape": [96], "dtype": "float32"}, {"name": "batch_normalization_110/beta", "shape": [96], "dtype": "float32"}, {"name": "batch_normalization_110/moving_mean", "shape": [96], "dtype": "float32"}, {"name": "batch_normalization_110/moving_variance", "shape": [96], "dtype": "float32"}, {"name": "batch_normalization_111/gamma", "shape": [96], "dtype": "float32"}, {"name": "batch_normalization_111/beta", "shape": [96], "dtype": "float32"}, {"name": "batch_normalization_111/moving_mean", "shape": [96], "dtype": "float32"}, {"name": "batch_normalization_111/moving_variance", "shape": [96], "dtype": "float32"}, {"name": "batch_normalization_112/gamma", "shape": [24], "dtype": "float32"}, {"name": "batch_normalization_112/beta", "shape": [24], "dtype": "float32"}, {"name": "batch_normalization_112/moving_mean", "shape": [24], "dtype": "float32"}, {"name": "batch_normalization_112/moving_variance", "shape": [24], "dtype": "float32"}, {"name": "batch_normalization_113/gamma", "shape": [144], "dtype": "float32"}, {"name": "batch_normalization_113/beta", "shape": [144], "dtype": "float32"}, {"name": "batch_normalization_113/moving_mean", "shape": [144], "dtype": "float32"}, {"name": "batch_normalization_113/moving_variance", "shape": [144], "dtype": "float32"}, {"name": "batch_normalization_114/gamma", "shape": [144], "dtype": "float32"}, {"name": "batch_normalization_114/beta", "shape": [144], "dtype": "float32"}, {"name": "batch_normalization_114/moving_mean", "shape": [144], "dtype": "float32"}, {"name": "batch_normalization_114/moving_variance", "shape": [144], "dtype": "float32"}, {"name": "batch_normalization_115/gamma", "shape": [24], "dtype": "float32"}, {"name": "batch_normalization_115/beta", "shape": [24], "dtype": "float32"}, {"name": "batch_normalization_115/moving_mean", "shape": [24], "dtype": "float32"}, {"name": "batch_normalization_115/moving_variance", "shape": [24], "dtype": "float32"}, {"name": "batch_normalization_116/gamma", "shape": [144], "dtype": "float32"}, {"name": "batch_normalization_116/beta", "shape": [144], "dtype": "float32"}, {"name": "batch_normalization_116/moving_mean", "shape": [144], "dtype": "float32"}, {"name": "batch_normalization_116/moving_variance", "shape": [144], "dtype": "float32"}, {"name": "batch_normalization_117/gamma", "shape": [144], "dtype": "float32"}, {"name": "batch_normalization_117/beta", "shape": [144], "dtype": "float32"}, {"name": "batch_normalization_117/moving_mean", "shape": [144], "dtype": "float32"}, {"name": "batch_normalization_117/moving_variance", "shape": [144], "dtype": "float32"}, {"name": "batch_normalization_118/gamma", "shape": [32], "dtype": "float32"}, {"name": "batch_normalization_118/beta", "shape": [32], "dtype": "float32"}, {"name": "batch_normalization_118/moving_mean", "shape": [32], "dtype": "float32"}, {"name": "batch_normalization_118/moving_variance", "shape": [32], "dtype": "float32"}, {"name": "batch_normalization_119/gamma", "shape": [192], "dtype": "float32"}, {"name": "batch_normalization_119/beta", "shape": [192], "dtype": "float32"}, {"name": "batch_normalization_119/moving_mean", "shape": [192], "dtype": "float32"}, {"name": "batch_normalization_119/moving_variance", "shape": [192], "dtype": "float32"}, {"name": "batch_normalization_120/gamma", "shape": [192], "dtype": "float32"}, {"name": "batch_normalization_120/beta", "shape": [192], "dtype": "float32"}, {"name": "batch_normalization_120/moving_mean", "shape": [192], "dtype": "float32"}, {"name": "batch_normalization_120/moving_variance", "shape": [192], "dtype": "float32"}, {"name": "batch_normalization_121/gamma", "shape": [32], "dtype": "float32"}, {"name": "batch_normalization_121/beta", "shape": [32], "dtype": "float32"}, {"name": "batch_normalization_121/moving_mean", "shape": [32], "dtype": "float32"}, {"name": "batch_normalization_121/moving_variance", "shape": [32], "dtype": "float32"}, {"name": "batch_normalization_122/gamma", "shape": [192], "dtype": "float32"}, {"name": "batch_normalization_122/beta", "shape": [192], "dtype": "float32"}, {"name": "batch_normalization_122/moving_mean", "shape": [192], "dtype": "float32"}, {"name": "batch_normalization_122/moving_variance", "shape": [192], "dtype": "float32"}, {"name": "batch_normalization_123/gamma", "shape": [192], "dtype": "float32"}, {"name": "batch_normalization_123/beta", "shape": [192], "dtype": "float32"}, {"name": "batch_normalization_123/moving_mean", "shape": [192], "dtype": "float32"}, {"name": "batch_normalization_123/moving_variance", "shape": [192], "dtype": "float32"}, {"name": "batch_normalization_124/gamma", "shape": [32], "dtype": "float32"}, {"name": "batch_normalization_124/beta", "shape": [32], "dtype": "float32"}, {"name": "batch_normalization_124/moving_mean", "shape": [32], "dtype": "float32"}, {"name": "batch_normalization_124/moving_variance", "shape": [32], "dtype": "float32"}, {"name": "batch_normalization_125/gamma", "shape": [192], "dtype": "float32"}, {"name": "batch_normalization_125/beta", "shape": [192], "dtype": "float32"}, {"name": "batch_normalization_125/moving_mean", "shape": [192], "dtype": "float32"}, {"name": "batch_normalization_125/moving_variance", "shape": [192], "dtype": "float32"}, {"name": "batch_normalization_126/gamma", "shape": [192], "dtype": "float32"}, {"name": "batch_normalization_126/beta", "shape": [192], "dtype": "float32"}, {"name": "batch_normalization_126/moving_mean", "shape": [192], "dtype": "float32"}, {"name": "batch_normalization_126/moving_variance", "shape": [192], "dtype": "float32"}, {"name": "batch_normalization_127/gamma", "shape": [64], "dtype": "float32"}, {"name": "batch_normalization_127/beta", "shape": [64], "dtype": "float32"}, {"name": "batch_normalization_127/moving_mean", "shape": [64], "dtype": "float32"}, {"name": "batch_normalization_127/moving_variance", "shape": [64], "dtype": "float32"}, {"name": "batch_normalization_128/gamma", "shape": [384], "dtype": "float32"}, {"name": "batch_normalization_128/beta", "shape": [384], "dtype": "float32"}, {"name": "batch_normalization_128/moving_mean", "shape": [384], "dtype": "float32"}, {"name": "batch_normalization_128/moving_variance", "shape": [384], "dtype": "float32"}, {"name": "batch_normalization_129/gamma", "shape": [384], "dtype": "float32"}, {"name": "batch_normalization_129/beta", "shape": [384], "dtype": "float32"}, {"name": "batch_normalization_129/moving_mean", "shape": [384], "dtype": "float32"}, {"name": "batch_normalization_129/moving_variance", "shape": [384], "dtype": "float32"}, {"name": "batch_normalization_130/gamma", "shape": [64], "dtype": "float32"}, {"name": "batch_normalization_130/beta", "shape": [64], "dtype": "float32"}, {"name": "batch_normalization_130/moving_mean", "shape": [64], "dtype": "float32"}, {"name": "batch_normalization_130/moving_variance", "shape": [64], "dtype": "float32"}, {"name": "batch_normalization_131/gamma", "shape": [384], "dtype": "float32"}, {"name": "batch_normalization_131/beta", "shape": [384], "dtype": "float32"}, {"name": "batch_normalization_131/moving_mean", "shape": [384], "dtype": "float32"}, {"name": "batch_normalization_131/moving_variance", "shape": [384], "dtype": "float32"}, {"name": "batch_normalization_132/gamma", "shape": [384], "dtype": "float32"}, {"name": "batch_normalization_132/beta", "shape": [384], "dtype": "float32"}, {"name": "batch_normalization_132/moving_mean", "shape": [384], "dtype": "float32"}, {"name": "batch_normalization_132/moving_variance", "shape": [384], "dtype": "float32"}, {"name": "batch_normalization_133/gamma", "shape": [64], "dtype": "float32"}, {"name": "batch_normalization_133/beta", "shape": [64], "dtype": "float32"}, {"name": "batch_normalization_133/moving_mean", "shape": [64], "dtype": "float32"}, {"name": "batch_normalization_133/moving_variance", "shape": [64], "dtype": "float32"}, {"name": "batch_normalization_134/gamma", "shape": [384], "dtype": "float32"}, {"name": "batch_normalization_134/beta", "shape": [384], "dtype": "float32"}, {"name": "batch_normalization_134/moving_mean", "shape": [384], "dtype": "float32"}, {"name": "batch_normalization_134/moving_variance", "shape": [384], "dtype": "float32"}, {"name": "batch_normalization_135/gamma", "shape": [384], "dtype": "float32"}, {"name": "batch_normalization_135/beta", "shape": [384], "dtype": "float32"}, {"name": "batch_normalization_135/moving_mean", "shape": [384], "dtype": "float32"}, {"name": "batch_normalization_135/moving_variance", "shape": [384], "dtype": "float32"}, {"name": "batch_normalization_136/gamma", "shape": [64], "dtype": "float32"}, {"name": "batch_normalization_136/beta", "shape": [64], "dtype": "float32"}, {"name": "batch_normalization_136/moving_mean", "shape": [64], "dtype": "float32"}, {"name": "batch_normalization_136/moving_variance", "shape": [64], "dtype": "float32"}, {"name": "batch_normalization_137/gamma", "shape": [384], "dtype": "float32"}, {"name": "batch_normalization_137/beta", "shape": [384], "dtype": "float32"}, {"name": "batch_normalization_137/moving_mean", "shape": [384], "dtype": "float32"}, {"name": "batch_normalization_137/moving_variance", "shape": [384], "dtype": "float32"}, {"name": "batch_normalization_138/gamma", "shape": [384], "dtype": "float32"}, {"name": "batch_normalization_138/beta", "shape": [384], "dtype": "float32"}, {"name": "batch_normalization_138/moving_mean", "shape": [384], "dtype": "float32"}, {"name": "batch_normalization_138/moving_variance", "shape": [384], "dtype": "float32"}, {"name": "batch_normalization_139/gamma", "shape": [96], "dtype": "float32"}, {"name": "batch_normalization_139/beta", "shape": [96], "dtype": "float32"}, {"name": "batch_normalization_139/moving_mean", "shape": [96], "dtype": "float32"}, {"name": "batch_normalization_139/moving_variance", "shape": [96], "dtype": "float32"}, {"name": "batch_normalization_140/gamma", "shape": [576], "dtype": "float32"}, {"name": "batch_normalization_140/beta", "shape": [576], "dtype": "float32"}, {"name": "batch_normalization_140/moving_mean", "shape": [576], "dtype": "float32"}, {"name": "batch_normalization_140/moving_variance", "shape": [576], "dtype": "float32"}, {"name": "batch_normalization_141/gamma", "shape": [576], "dtype": "float32"}, {"name": "batch_normalization_141/beta", "shape": [576], "dtype": "float32"}, {"name": "batch_normalization_141/moving_mean", "shape": [576], "dtype": "float32"}, {"name": "batch_normalization_141/moving_variance", "shape": [576], "dtype": "float32"}, {"name": "batch_normalization_142/gamma", "shape": [96], "dtype": "float32"}, {"name": "batch_normalization_142/beta", "shape": [96], "dtype": "float32"}, {"name": "batch_normalization_142/moving_mean", "shape": [96], "dtype": "float32"}, {"name": "batch_normalization_142/moving_variance", "shape": [96], "dtype": "float32"}, {"name": "batch_normalization_143/gamma", "shape": [576], "dtype": "float32"}, {"name": "batch_normalization_143/beta", "shape": [576], "dtype": "float32"}, {"name": "batch_normalization_143/moving_mean", "shape": [576], "dtype": "float32"}, {"name": "batch_normalization_143/moving_variance", "shape": [576], "dtype": "float32"}, {"name": "batch_normalization_144/gamma", "shape": [576], "dtype": "float32"}, {"name": "batch_normalization_144/beta", "shape": [576], "dtype": "float32"}, {"name": "batch_normalization_144/moving_mean", "shape": [576], "dtype": "float32"}, {"name": "batch_normalization_144/moving_variance", "shape": [576], "dtype": "float32"}, {"name": "batch_normalization_145/gamma", "shape": [96], "dtype": "float32"}, {"name": "batch_normalization_145/beta", "shape": [96], "dtype": "float32"}, {"name": "batch_normalization_145/moving_mean", "shape": [96], "dtype": "float32"}, {"name": "batch_normalization_145/moving_variance", "shape": [96], "dtype": "float32"}, {"name": "batch_normalization_146/gamma", "shape": [576], "dtype": "float32"}, {"name": "batch_normalization_146/beta", "shape": [576], "dtype": "float32"}, {"name": "batch_normalization_146/moving_mean", "shape": [576], "dtype": "float32"}, {"name": "batch_normalization_146/moving_variance", "shape": [576], "dtype": "float32"}, {"name": "batch_normalization_147/gamma", "shape": [576], "dtype": "float32"}, {"name": "batch_normalization_147/beta", "shape": [576], "dtype": "float32"}, {"name": "batch_normalization_147/moving_mean", "shape": [576], "dtype": "float32"}, {"name": "batch_normalization_147/moving_variance", "shape": [576], "dtype": "float32"}, {"name": "batch_normalization_148/gamma", "shape": [160], "dtype": "float32"}, {"name": "batch_normalization_148/beta", "shape": [160], "dtype": "float32"}, {"name": "batch_normalization_148/moving_mean", "shape": [160], "dtype": "float32"}, {"name": "batch_normalization_148/moving_variance", "shape": [160], "dtype": "float32"}, {"name": "batch_normalization_149/gamma", "shape": [960], "dtype": "float32"}, {"name": "batch_normalization_149/beta", "shape": [960], "dtype": "float32"}, {"name": "batch_normalization_149/moving_mean", "shape": [960], "dtype": "float32"}, {"name": "batch_normalization_149/moving_variance", "shape": [960], "dtype": "float32"}, {"name": "batch_normalization_150/gamma", "shape": [960], "dtype": "float32"}, {"name": "batch_normalization_150/beta", "shape": [960], "dtype": "float32"}, {"name": "batch_normalization_150/moving_mean", "shape": [960], "dtype": "float32"}, {"name": "batch_normalization_150/moving_variance", "shape": [960], "dtype": "float32"}, {"name": "batch_normalization_151/gamma", "shape": [160], "dtype": "float32"}, {"name": "batch_normalization_151/beta", "shape": [160], "dtype": "float32"}, {"name": "batch_normalization_151/moving_mean", "shape": [160], "dtype": "float32"}, {"name": "batch_normalization_151/moving_variance", "shape": [160], "dtype": "float32"}, {"name": "batch_normalization_152/gamma", "shape": [960], "dtype": "float32"}, {"name": "batch_normalization_152/beta", "shape": [960], "dtype": "float32"}, {"name": "batch_normalization_152/moving_mean", "shape": [960], "dtype": "float32"}, {"name": "batch_normalization_152/moving_variance", "shape": [960], "dtype": "float32"}, {"name": "batch_normalization_153/gamma", "shape": [960], "dtype": "float32"}, {"name": "batch_normalization_153/beta", "shape": [960], "dtype": "float32"}, {"name": "batch_normalization_153/moving_mean", "shape": [960], "dtype": "float32"}, {"name": "batch_normalization_153/moving_variance", "shape": [960], "dtype": "float32"}, {"name": "batch_normalization_154/gamma", "shape": [160], "dtype": "float32"}, {"name": "batch_normalization_154/beta", "shape": [160], "dtype": "float32"}, {"name": "batch_normalization_154/moving_mean", "shape": [160], "dtype": "float32"}, {"name": "batch_normalization_154/moving_variance", "shape": [160], "dtype": "float32"}, {"name": "batch_normalization_155/gamma", "shape": [960], "dtype": "float32"}, {"name": "batch_normalization_155/beta", "shape": [960], "dtype": "float32"}, {"name": "batch_normalization_155/moving_mean", "shape": [960], "dtype": "float32"}, {"name": "batch_normalization_155/moving_variance", "shape": [960], "dtype": "float32"}, {"name": "batch_normalization_156/gamma", "shape": [960], "dtype": "float32"}, {"name": "batch_normalization_156/beta", "shape": [960], "dtype": "float32"}, {"name": "batch_normalization_156/moving_mean", "shape": [960], "dtype": "float32"}, {"name": "batch_normalization_156/moving_variance", "shape": [960], "dtype": "float32"}, {"name": "batch_normalization_157/gamma", "shape": [320], "dtype": "float32"}, {"name": "batch_normalization_157/beta", "shape": [320], "dtype": "float32"}, {"name": "batch_normalization_157/moving_mean", "shape": [320], "dtype": "float32"}, {"name": "batch_normalization_157/moving_variance", "shape": [320], "dtype": "float32"}, {"name": "batch_normalization_158/gamma", "shape": [1280], "dtype": "float32"}, {"name": "batch_normalization_158/beta", "shape": [1280], "dtype": "float32"}, {"name": "batch_normalization_158/moving_mean", "shape": [1280], "dtype": "float32"}, {"name": "batch_normalization_158/moving_variance", "shape": [1280], "dtype": "float32"}, {"name": "conv2d_100/kernel", "shape": [1, 1, 576, 160], "dtype": "float32"}, {"name": "conv2d_101/kernel", "shape": [1, 1, 160, 960], "dtype": "float32"}, {"name": "conv2d_102/kernel", "shape": [1, 1, 960, 160], "dtype": "float32"}, {"name": "conv2d_103/kernel", "shape": [1, 1, 160, 960], "dtype": "float32"}, {"name": "conv2d_104/kernel", "shape": [1, 1, 960, 160], "dtype": "float32"}, {"name": "conv2d_105/kernel", "shape": [1, 1, 160, 960], "dtype": "float32"}, {"name": "conv2d_106/kernel", "shape": [1, 1, 960, 320], "dtype": "float32"}, {"name": "conv2d_107/kernel", "shape": [3, 3, 320, 1280], "dtype": "float32"}, {"name": "conv2d_72/kernel", "shape": [3, 3, 3, 32], "dtype": "float32"}, {"name": "conv2d_73/kernel", "shape": [1, 1, 32, 32], "dtype": "float32"}, {"name": "conv2d_74/kernel", "shape": [1, 1, 32, 16], "dtype": "float32"}, {"name": "conv2d_75/kernel", "shape": [1, 1, 16, 96], "dtype": "float32"}, {"name": "conv2d_76/kernel", "shape": [1, 1, 96, 24], "dtype": "float32"}, {"name": "conv2d_77/kernel", "shape": [1, 1, 24, 144], "dtype": "float32"}, {"name": "conv2d_78/kernel", "shape": [1, 1, 144, 24], "dtype": "float32"}, {"name": "conv2d_79/kernel", "shape": [1, 1, 24, 144], "dtype": "float32"}, {"name": "conv2d_80/kernel", "shape": [1, 1, 144, 32], "dtype": "float32"}, {"name": "conv2d_81/kernel", "shape": [1, 1, 32, 192], "dtype": "float32"}, {"name": "conv2d_82/kernel", "shape": [1, 1, 192, 32], "dtype": "float32"}, {"name": "conv2d_83/kernel", "shape": [1, 1, 32, 192], "dtype": "float32"}, {"name": "conv2d_84/kernel", "shape": [1, 1, 192, 32], "dtype": "float32"}, {"name": "conv2d_85/kernel", "shape": [1, 1, 32, 192], "dtype": "float32"}, {"name": "conv2d_86/kernel", "shape": [1, 1, 192, 64], "dtype": "float32"}, {"name": "conv2d_87/kernel", "shape": [1, 1, 64, 384], "dtype": "float32"}, {"name": "conv2d_88/kernel", "shape": [1, 1, 384, 64], "dtype": "float32"}, {"name": "conv2d_89/kernel", "shape": [1, 1, 64, 384], "dtype": "float32"}, {"name": "conv2d_90/kernel", "shape": [1, 1, 384, 64], "dtype": "float32"}, {"name": "conv2d_91/kernel", "shape": [1, 1, 64, 384], "dtype": "float32"}, {"name": "conv2d_92/kernel", "shape": [1, 1, 384, 64], "dtype": "float32"}, {"name": "conv2d_93/kernel", "shape": [1, 1, 64, 384], "dtype": "float32"}, {"name": "conv2d_94/kernel", "shape": [1, 1, 384, 96], "dtype": "float32"}, {"name": "conv2d_95/kernel", "shape": [1, 1, 96, 576], "dtype": "float32"}, {"name": "conv2d_96/kernel", "shape": [1, 1, 576, 96], "dtype": "float32"}, {"name": "conv2d_97/kernel", "shape": [1, 1, 96, 576], "dtype": "float32"}, {"name": "conv2d_98/kernel", "shape": [1, 1, 576, 96], "dtype": "float32"}, {"name": "conv2d_99/kernel", "shape": [1, 1, 96, 576], "dtype": "float32"}, {"name": "dense_2/kernel", "shape": [1280, 24], "dtype": "float32"}, {"name": "dense_2/bias", "shape": [24], "dtype": "float32"}, {"name": "depthwise_conv2d_34/depthwise_kernel", "shape": [3, 3, 32, 1], "dtype": "float32"}, {"name": "depthwise_conv2d_35/depthwise_kernel", "shape": [3, 3, 96, 1], "dtype": "float32"}, {"name": "depthwise_conv2d_36/depthwise_kernel", "shape": [3, 3, 144, 1], "dtype": "float32"}, {"name": "depthwise_conv2d_37/depthwise_kernel", "shape": [3, 3, 144, 1], "dtype": "float32"}, {"name": "depthwise_conv2d_38/depthwise_kernel", "shape": [3, 3, 192, 1], "dtype": "float32"}, {"name": "depthwise_conv2d_39/depthwise_kernel", "shape": [3, 3, 192, 1], "dtype": "float32"}, {"name": "depthwise_conv2d_40/depthwise_kernel", "shape": [3, 3, 192, 1], "dtype": "float32"}, {"name": "depthwise_conv2d_41/depthwise_kernel", "shape": [3, 3, 384, 1], "dtype": "float32"}, {"name": "depthwise_conv2d_42/depthwise_kernel", "shape": [3, 3, 384, 1], "dtype": "float32"}, {"name": "depthwise_conv2d_43/depthwise_kernel", "shape": [3, 3, 384, 1], "dtype": "float32"}, {"name": "depthwise_conv2d_44/depthwise_kernel", "shape": [3, 3, 384, 1], "dtype": "float32"}, {"name": "depthwise_conv2d_45/depthwise_kernel", "shape": [3, 3, 576, 1], "dtype": "float32"}, {"name": "depthwise_conv2d_46/depthwise_kernel", "shape": [3, 3, 576, 1], "dtype": "float32"}, {"name": "depthwise_conv2d_47/depthwise_kernel", "shape": [3, 3, 576, 1], "dtype": "float32"}, {"name": "depthwise_conv2d_48/depthwise_kernel", "shape": [3, 3, 960, 1], "dtype": "float32"}, {"name": "depthwise_conv2d_49/depthwise_kernel", "shape": [3, 3, 960, 1], "dtype": "float32"}, {"name": "depthwise_conv2d_50/depthwise_kernel", "shape": [3, 3, 960, 1], "dtype": "float32"}]}]}